…
WARNING:tensorflow:Using a while_loop for converting StatelessRandomUniformV2 cause there is no registered converter for this op.
WARNING:tensorflow:Using a while_loop for converting AdjustContrastv2 cause Input "contrast_factor" of op 'AdjustContrastv2' expected to be loop invariant.
(None, 256, 256, 3)
(None, 8, 8, 512)
Model: "vgg_like"
_________________________________________________________________
 Layer (type)                Output Shape              Param #
=================================================================
 input_2 (InputLayer)        [(None, 256, 256, 3)]     0

 vgg16 (Functional)          (None, 8, 8, 512)         14714688

 conv2d_4 (Conv2D)           (None, 8, 8, 45)          207405

 max_pooling2d_4 (MaxPooling  (None, 4, 4, 45)         0
 2D)

 conv2d_5 (Conv2D)           (None, 4, 4, 45)          18270

 max_pooling2d_5 (MaxPooling  (None, 2, 2, 45)         0
 2D)

 global_average_pooling2d (G  (None, 45)               0
 lobalAveragePooling2D)

 dense (Dense)               (None, 38)                1748

 leaky_re_lu (LeakyReLU)     (None, 38)                0

 dropout (Dropout)           (None, 38)                0

 dense_1 (Dense)             (None, 1)                 39

=================================================================
Total params: 14,942,150
Trainable params: 227,462
Non-trainable params: 14,714,688
_________________________________________________________________
Number of batches in validation dataset: 8
Validation batch shape: (16, 256, 256, 3), Label shape: (16,)
Traceback (most recent call last):
  File "F:\dl lab\dl-lab-24w-team04-feature\Jiang241023\wandb_sweep.py", line 46, in train_func
…
