…
WARNING:tensorflow:Using a while_loop for converting StatelessRandomUniformV2 cause there is no registered converter for this op.
WARNING:tensorflow:Using a while_loop for converting AdjustContrastv2 cause Input "contrast_factor" of op 'AdjustContrastv2' expected to be loop invariant.
(None, 256, 256, 3)
(None, 8, 8, 512)
Model: "vgg_like"
_________________________________________________________________
 Layer (type)                Output Shape              Param #
=================================================================
 input_2 (InputLayer)        [(None, 256, 256, 3)]     0

 vgg16 (Functional)          (None, 8, 8, 512)         14714688

 conv2d (Conv2D)             (None, 8, 8, 112)         516208

 max_pooling2d (MaxPooling2D  (None, 4, 4, 112)        0
 )

 conv2d_1 (Conv2D)           (None, 4, 4, 112)         113008

 max_pooling2d_1 (MaxPooling  (None, 2, 2, 112)        0
 2D)

 global_average_pooling2d (G  (None, 112)              0
 lobalAveragePooling2D)

 dense (Dense)               (None, 47)                5311

 leaky_re_lu (LeakyReLU)     (None, 47)                0

 dropout (Dropout)           (None, 47)                0

 dense_1 (Dense)             (None, 1)                 48

=================================================================
Total params: 15,349,263
Trainable params: 634,575
Non-trainable params: 14,714,688
_________________________________________________________________
Number of batches in validation dataset: 8
Validation batch shape: (16, 256, 256, 3), Label shape: (16,)
Traceback (most recent call last):
  File "F:\dl lab\dl-lab-24w-team04-feature\Jiang241023\wandb_sweep.py", line 50, in train_func
…
