…
WARNING:tensorflow:Using a while_loop for converting AdjustContrastv2 cause Input "contrast_factor" of op 'AdjustContrastv2' expected to be loop invariant.
W1127 19:18:48.735156 34156 pfor.py:1082] Using a while_loop for converting AdjustContrastv2 cause Input "contrast_factor" of op 'AdjustContrastv2' expected to be loop invariant.
Model: "vgg_like"
_________________________________________________________________
 Layer (type)                Output Shape              Param #
=================================================================
 input_3 (InputLayer)        [(None, 8, 8, 512)]       0

 conv2d (Conv2D)             (None, 8, 8, 8)           36872

 max_pooling2d (MaxPooling2D  (None, 4, 4, 8)          0
 )

 conv2d_1 (Conv2D)           (None, 4, 4, 8)           584

 max_pooling2d_1 (MaxPooling  (None, 2, 2, 8)          0
 2D)

 global_average_pooling2d (G  (None, 8)                0
 lobalAveragePooling2D)

 dense (Dense)               (None, 256)               2304

 leaky_re_lu (LeakyReLU)     (None, 256)               0

 dropout (Dropout)           (None, 256)               0

 dense_1 (Dense)             (None, 1)                 257

=================================================================
Total params: 40,017
Trainable params: 40,017
Non-trainable params: 0
_________________________________________________________________
Number of batches in validation dataset: 8
Validation batch shape: (16, 256, 256, 3), Label shape: (16,)
input_3 True
conv2d True
max_pooling2d True
conv2d_1 True
max_pooling2d_1 True
global_average_pooling2d True
…
