…
WARNING:tensorflow:Using a while_loop for converting AdjustContrastv2 cause Input "contrast_factor" of op 'AdjustContrastv2' expected to be loop invariant.
W1127 19:38:04.390214 37336 pfor.py:1082] Using a while_loop for converting AdjustContrastv2 cause Input "contrast_factor" of op 'AdjustContrastv2' expected to be loop invariant.
(None, 256, 256, 3)
(None, 8, 8, 512)
Model: "vgg_like"
_________________________________________________________________
 Layer (type)                Output Shape              Param #
=================================================================
 input_2 (InputLayer)        [(None, 256, 256, 3)]     0

 vgg16 (Functional)          (None, 8, 8, 512)         14714688

 conv2d (Conv2D)             (None, 8, 8, 8)           36872

 max_pooling2d (MaxPooling2D  (None, 4, 4, 8)          0
 )

 conv2d_1 (Conv2D)           (None, 4, 4, 8)           584

 max_pooling2d_1 (MaxPooling  (None, 2, 2, 8)          0
 2D)

 global_average_pooling2d (G  (None, 8)                0
 lobalAveragePooling2D)

 dense (Dense)               (None, 256)               2304

 leaky_re_lu (LeakyReLU)     (None, 256)               0

 dropout (Dropout)           (None, 256)               0

 dense_1 (Dense)             (None, 1)                 257

=================================================================
Total params: 14,754,705
Trainable params: 40,017
Non-trainable params: 14,714,688
_________________________________________________________________
Number of batches in validation dataset: 8
Validation batch shape: (16, 256, 256, 3), Label shape: (16,)
input_2 True
vgg16 False
conv2d True
max_pooling2d True
conv2d_1 True
max_pooling2d_1 True
…
