…
WARNING:tensorflow:Using a while_loop for converting AdjustContrastv2 cause Input "contrast_factor" of op 'AdjustContrastv2' expected to be loop invariant.
(None, 256, 256, 3)
(None, 8, 8, 512)
----------------------------------------------------------------------------------------
Starting training vgg_like
Model: "vgg_like"
_________________________________________________________________
 Layer (type)                Output Shape              Param #
=================================================================
 input_2 (InputLayer)        [(None, 256, 256, 3)]     0

 vgg16 (Functional)          (None, 8, 8, 512)         14714688

 conv2d_8 (Conv2D)           (None, 8, 8, 40)          184360

 max_pooling2d_8 (MaxPooling  (None, 4, 4, 40)         0
 2D)

 conv2d_9 (Conv2D)           (None, 4, 4, 40)          14440

 max_pooling2d_9 (MaxPooling  (None, 2, 2, 40)         0
 2D)

 global_average_pooling2d (G  (None, 40)               0
 lobalAveragePooling2D)

 dense (Dense)               (None, 36)                1476

 leaky_re_lu (LeakyReLU)     (None, 36)                0

 dropout (Dropout)           (None, 36)                0

 dense_1 (Dense)             (None, 1)                 37

=================================================================
Total params: 14,915,001
Trainable params: 200,313
Non-trainable params: 14,714,688
_________________________________________________________________
Number of batches in validation dataset: 8
Validation batch shape: (16, 256, 256, 3), Label shape: (16,)
input_2 True
vgg16 False
conv2d_8 True
max_pooling2d_8 True
conv2d_9 True
max_pooling2d_9 True
…
