…
WARNING:tensorflow:Using a while_loop for converting StatelessRandomUniformV2 cause there is no registered converter for this op.
WARNING:tensorflow:Using a while_loop for converting AdjustContrastv2 cause Input "contrast_factor" of op 'AdjustContrastv2' expected to be loop invariant.
(None, 256, 256, 3)
(None, 8, 8, 512)
Model: "vgg_like"
_________________________________________________________________
 Layer (type)                Output Shape              Param #
=================================================================
 input_2 (InputLayer)        [(None, 256, 256, 3)]     0

 vgg16 (Functional)          (None, 8, 8, 512)         14714688

 conv2d_8 (Conv2D)           (None, 8, 8, 19)          87571

 max_pooling2d_8 (MaxPooling  (None, 4, 4, 19)         0
 2D)

 conv2d_9 (Conv2D)           (None, 4, 4, 19)          3268

 max_pooling2d_9 (MaxPooling  (None, 2, 2, 19)         0
 2D)

 global_average_pooling2d (G  (None, 19)               0
 lobalAveragePooling2D)

 dense (Dense)               (None, 111)               2220

 leaky_re_lu (LeakyReLU)     (None, 111)               0

 dropout (Dropout)           (None, 111)               0

 dense_1 (Dense)             (None, 1)                 112

=================================================================
Total params: 14,807,859
Trainable params: 93,171
Non-trainable params: 14,714,688
_________________________________________________________________
Number of batches in validation dataset: 8
Validation batch shape: (16, 256, 256, 3), Label shape: (16,)
Training checkpoint path: F:\dl lab\dl-lab-24w-team04-feature\experiments\run_2024-11-30T14-39-15-132456_vgg_like\ckpts
