…
WARNING:tensorflow:Using a while_loop for converting AdjustContrastv2 cause Input "contrast_factor" of op 'AdjustContrastv2' expected to be loop invariant.
(None, 256, 256, 3)
(None, 8, 8, 512)
----------------------------------------------------------------------------------------
Starting training vgg_like
Model: "vgg_like"
_________________________________________________________________
 Layer (type)                Output Shape              Param #
=================================================================
 input_2 (InputLayer)        [(None, 256, 256, 3)]     0

 vgg16 (Functional)          (None, 8, 8, 512)         14714688

 conv2d_10 (Conv2D)          (None, 8, 8, 96)          442464

 max_pooling2d_10 (MaxPoolin  (None, 4, 4, 96)         0
 g2D)

 conv2d_11 (Conv2D)          (None, 4, 4, 96)          83040

 max_pooling2d_11 (MaxPoolin  (None, 2, 2, 96)         0
 g2D)

 global_average_pooling2d (G  (None, 96)               0
 lobalAveragePooling2D)

 dense (Dense)               (None, 119)               11543

 leaky_re_lu (LeakyReLU)     (None, 119)               0

 dropout (Dropout)           (None, 119)               0

 dense_1 (Dense)             (None, 1)                 120

=================================================================
Total params: 15,251,855
Trainable params: 537,167
Non-trainable params: 14,714,688
_________________________________________________________________
Number of batches in validation dataset: 8
Validation batch shape: (16, 256, 256, 3), Label shape: (16,)
input_2 True
vgg16 False
conv2d_10 True
max_pooling2d_10 True
conv2d_11 True
max_pooling2d_11 True
…
