…
W1201 09:23:16.603879 17540 mobilenet.py:241] `input_shape` is undefined or non-square, or `rows` is not in [128, 160, 192, 224]. Weights for input shape (224, 224) will be loaded as the default.
(None, 256, 256, 3)
(None, 8, 8, 512)
----------------------------------------------------------------------------------------
Starting training mobilenet_like
Model: "mobilenet_like"
_________________________________________________________________
 Layer (type)                Output Shape              Param #
=================================================================
 input_2 (InputLayer)        [(None, 256, 256, 3)]     0

 mobilenet_1.00_224 (Functio  (None, 8, 8, 1024)       3228864
 nal)

 depthwise_conv2d_1 (Depthwi  (None, 8, 8, 1024)       9216
 seConv2D)

 batch_normalization_2 (Batc  (None, 8, 8, 1024)       4096
 hNormalization)

 re_lu_2 (ReLU)              (None, 8, 8, 1024)        0

 conv2d_1 (Conv2D)           (None, 8, 8, 119)         121856

 batch_normalization_3 (Batc  (None, 8, 8, 119)        476
 hNormalization)

 re_lu_3 (ReLU)              (None, 8, 8, 119)         0

 global_average_pooling2d (G  (None, 119)              0
 lobalAveragePooling2D)

 dense (Dense)               (None, 60)                7200

 dropout (Dropout)           (None, 60)                0

 dense_1 (Dense)             (None, 1)                 61

=================================================================
Total params: 3,371,769
Trainable params: 140,619
Non-trainable params: 3,231,150
_________________________________________________________________
Number of batches in validation dataset: 8
Validation batch shape: (16, 256, 256, 3), Label shape: (16,)
input_2 True
mobilenet_1.00_224 False
depthwise_conv2d_1 True
batch_normalization_2 True
…
Training checkpoint path for mobilenet_like: F:\dl lab\dl-lab-24w-team04-feature\experiments\run_2024-12-01T09-23-13-692696_mobilenet_like\ckpts
Training completed for mobilenet_like
----------------------------------------------------------------------------------------
----------------------------------------------------------------------------------------
Starting training vgg_like
Model: "vgg_like"
_________________________________________________________________
 Layer (type)                Output Shape              Param #
=================================================================
 input_4 (InputLayer)        [(None, 256, 256, 3)]     0

 vgg16 (Functional)          (None, 8, 8, 512)         14714688

 conv2d_4 (Conv2D)           (None, 8, 8, 25)          115225

 max_pooling2d_2 (MaxPooling  (None, 4, 4, 25)         0
 2D)

 conv2d_5 (Conv2D)           (None, 4, 4, 25)          5650

 max_pooling2d_3 (MaxPooling  (None, 2, 2, 25)         0
 2D)

 global_average_pooling2d_1   (None, 25)               0
 (GlobalAveragePooling2D)

 dense_2 (Dense)             (None, 19)                494

 leaky_re_lu (LeakyReLU)     (None, 19)                0

 dropout_1 (Dropout)         (None, 19)                0

 dense_3 (Dense)             (None, 1)                 20

=================================================================
Total params: 14,836,077
Trainable params: 121,389
Non-trainable params: 14,714,688
_________________________________________________________________
Number of batches in validation dataset: 8
Validation batch shape: (16, 256, 256, 3), Label shape: (16,)
input_4 True
vgg16 False
conv2d_4 True
max_pooling2d_2 True
conv2d_5 True
max_pooling2d_3 True
…
----------------------------------------------------------------------------------------
----------------------------------------------------------------------------------------
Starting training inception_v2_like
Model: "inception_v2_like"
__________________________________________________________________________________________________
 Layer (type)                   Output Shape         Param #     Connected to
==================================================================================================
 input_6 (InputLayer)           [(None, 256, 256, 3  0           []
                                )]

 inception_resnet_v2 (Functiona  (None, 6, 6, 1536)  54336736    ['input_6[0][0]']
 l)

 conv2d_226 (Conv2D)            (None, 6, 6, 25)     38400       ['inception_resnet_v2[0][0]']

 batch_normalization_224 (Batch  (None, 6, 6, 25)    100         ['conv2d_226[0][0]']
 Normalization)

 re_lu_21 (ReLU)                (None, 6, 6, 25)     0           ['batch_normalization_224[0][0]']

 conv2d_224 (Conv2D)            (None, 6, 6, 25)     38400       ['inception_resnet_v2[0][0]']

 conv2d_227 (Conv2D)            (None, 6, 6, 25)     1875        ['re_lu_21[0][0]']

 batch_normalization_222 (Batch  (None, 6, 6, 25)    100         ['conv2d_224[0][0]']
 Normalization)

 batch_normalization_225 (Batch  (None, 6, 6, 25)    100         ['conv2d_227[0][0]']
 Normalization)

 re_lu_19 (ReLU)                (None, 6, 6, 25)     0           ['batch_normalization_222[0][0]']

 re_lu_22 (ReLU)                (None, 6, 6, 25)     0           ['batch_normalization_225[0][0]']

 max_pooling2d_10 (MaxPooling2D  (None, 6, 6, 1536)  0           ['inception_resnet_v2[0][0]']
 )

 conv2d_223 (Conv2D)            (None, 6, 6, 25)     38400       ['inception_resnet_v2[0][0]']

 conv2d_225 (Conv2D)            (None, 6, 6, 25)     5625        ['re_lu_19[0][0]']

 conv2d_228 (Conv2D)            (None, 6, 6, 25)     1875        ['re_lu_22[0][0]']

 conv2d_229 (Conv2D)            (None, 6, 6, 25)     38400       ['max_pooling2d_10[0][0]']

 batch_normalization_221 (Batch  (None, 6, 6, 25)    100         ['conv2d_223[0][0]']
 Normalization)

 batch_normalization_223 (Batch  (None, 6, 6, 25)    100         ['conv2d_225[0][0]']
 Normalization)

 batch_normalization_226 (Batch  (None, 6, 6, 25)    100         ['conv2d_228[0][0]']
 Normalization)

 batch_normalization_227 (Batch  (None, 6, 6, 25)    100         ['conv2d_229[0][0]']
 Normalization)

 re_lu_18 (ReLU)                (None, 6, 6, 25)     0           ['batch_normalization_221[0][0]']

 re_lu_20 (ReLU)                (None, 6, 6, 25)     0           ['batch_normalization_223[0][0]']

 re_lu_23 (ReLU)                (None, 6, 6, 25)     0           ['batch_normalization_226[0][0]']

 re_lu_24 (ReLU)                (None, 6, 6, 25)     0           ['batch_normalization_227[0][0]']

 concatenate_2 (Concatenate)    (None, 6, 6, 100)    0           ['re_lu_18[0][0]',
                                                                  're_lu_20[0][0]',
                                                                  're_lu_23[0][0]',
                                                                  're_lu_24[0][0]']

 global_average_pooling2d_2 (Gl  (None, 100)         0           ['concatenate_2[0][0]']
 obalAveragePooling2D)

 dense_4 (Dense)                (None, 38)           3838        ['global_average_pooling2d_2[0][0
                                                                 ]']

 dropout_2 (Dropout)            (None, 38)           0           ['dense_4[0][0]']

 dense_5 (Dense)                (None, 1)            39          ['dropout_2[0][0]']

==================================================================================================
Total params: 54,504,288
Trainable params: 167,202
Non-trainable params: 54,337,086
__________________________________________________________________________________________________
Number of batches in validation dataset: 8
Validation batch shape: (16, 256, 256, 3), Label shape: (16,)
…
