…
WARNING:tensorflow:`input_shape` is undefined or non-square, or `rows` is not in [128, 160, 192, 224]. Weights for input shape (224, 224) will be loaded as the default.
W1129 14:59:33.041805  5412 mobilenet.py:241] `input_shape` is undefined or non-square, or `rows` is not in [128, 160, 192, 224]. Weights for input shape (224, 224) will be loaded as the default.
(None, 256, 256, 3)
(None, 8, 8, 512)
Model: "mobile_like"
_________________________________________________________________
 Layer (type)                Output Shape              Param #
=================================================================
 input_2 (InputLayer)        [(None, 256, 256, 3)]     0

 mobilenet_1.00_224 (Functio  (None, 8, 8, 1024)       3228864
 nal)

 depthwise_conv2d (Depthwise  (None, 8, 8, 1024)       9216
 Conv2D)

 batch_normalization (BatchN  (None, 8, 8, 1024)       4096
 ormalization)

 re_lu (ReLU)                (None, 8, 8, 1024)        0

 conv2d (Conv2D)             (None, 8, 8, 4)           4096

 batch_normalization_1 (Batc  (None, 8, 8, 4)          16
 hNormalization)

 re_lu_1 (ReLU)              (None, 8, 8, 4)           0

 global_average_pooling2d (G  (None, 4)                0
 lobalAveragePooling2D)

 dense (Dense)               (None, 128)               640

 dropout (Dropout)           (None, 128)               0

 dense_1 (Dense)             (None, 1)                 129

=================================================================
Total params: 3,247,057
Trainable params: 16,137
Non-trainable params: 3,230,920
_________________________________________________________________
Model: "vgg_like"
_________________________________________________________________
 Layer (type)                Output Shape              Param #
=================================================================
 input_4 (InputLayer)        [(None, 256, 256, 3)]     0

 vgg16 (Functional)          (None, 8, 8, 512)         14714688

 conv2d_1 (Conv2D)           (None, 8, 8, 4)           18436

 max_pooling2d (MaxPooling2D  (None, 4, 4, 4)          0
 )

 conv2d_2 (Conv2D)           (None, 4, 4, 4)           148

 max_pooling2d_1 (MaxPooling  (None, 2, 2, 4)          0
 2D)

 global_average_pooling2d_1   (None, 4)                0
 (GlobalAveragePooling2D)

 dense_2 (Dense)             (None, 128)               640

 leaky_re_lu (LeakyReLU)     (None, 128)               0

 dropout_1 (Dropout)         (None, 128)               0

 dense_3 (Dense)             (None, 1)                 129

=================================================================
Total params: 14,734,041
Trainable params: 19,353
Non-trainable params: 14,714,688
_________________________________________________________________
Traceback (most recent call last):
  File "F:\dl lab\dl-lab-24w-team04-feature\Jiang241023\main.py", line 103, in <module>
    app.run(main)
  File "E:\anaconda\lib\site-packages\absl\app.py", line 308, in run
…
