…
WARNING:tensorflow:Using a while_loop for converting AdjustContrastv2 cause Input "contrast_factor" of op 'AdjustContrastv2' expected to be loop invariant.
----------------------------------------------------------------------------------------
Starting training inception_v2_like
Model: "inception_v2_like"
__________________________________________________________________________________________________
 Layer (type)                   Output Shape         Param #     Connected to
==================================================================================================
 input_2 (InputLayer)           [(None, 256, 256, 3  0           []
                                )]

 inception_resnet_v2 (Functiona  (None, 6, 6, 1536)  54336736    ['input_2[0][0]']
 l)

 conv2d_255 (Conv2D)            (None, 6, 6, 43)     66048       ['inception_resnet_v2[0][0]']

 batch_normalization_255 (Batch  (None, 6, 6, 43)    172         ['conv2d_255[0][0]']
 Normalization)

 re_lu_52 (ReLU)                (None, 6, 6, 43)     0           ['batch_normalization_255[0][0]']

 conv2d_253 (Conv2D)            (None, 6, 6, 43)     66048       ['inception_resnet_v2[0][0]']

 conv2d_256 (Conv2D)            (None, 6, 6, 43)     5547        ['re_lu_52[0][0]']

 batch_normalization_253 (Batch  (None, 6, 6, 43)    172         ['conv2d_253[0][0]']
 Normalization)

 batch_normalization_256 (Batch  (None, 6, 6, 43)    172         ['conv2d_256[0][0]']
 Normalization)

 re_lu_50 (ReLU)                (None, 6, 6, 43)     0           ['batch_normalization_253[0][0]']

 re_lu_53 (ReLU)                (None, 6, 6, 43)     0           ['batch_normalization_256[0][0]']

 max_pooling2d_11 (MaxPooling2D  (None, 6, 6, 1536)  0           ['inception_resnet_v2[0][0]']
 )

 conv2d_252 (Conv2D)            (None, 6, 6, 43)     66048       ['inception_resnet_v2[0][0]']

 conv2d_254 (Conv2D)            (None, 6, 6, 43)     16641       ['re_lu_50[0][0]']

 conv2d_257 (Conv2D)            (None, 6, 6, 43)     5547        ['re_lu_53[0][0]']

 conv2d_258 (Conv2D)            (None, 6, 6, 43)     66048       ['max_pooling2d_11[0][0]']

 batch_normalization_252 (Batch  (None, 6, 6, 43)    172         ['conv2d_252[0][0]']
 Normalization)

 batch_normalization_254 (Batch  (None, 6, 6, 43)    172         ['conv2d_254[0][0]']
 Normalization)

 batch_normalization_257 (Batch  (None, 6, 6, 43)    172         ['conv2d_257[0][0]']
 Normalization)

 batch_normalization_258 (Batch  (None, 6, 6, 43)    172         ['conv2d_258[0][0]']
 Normalization)

 re_lu_49 (ReLU)                (None, 6, 6, 43)     0           ['batch_normalization_252[0][0]']

 re_lu_51 (ReLU)                (None, 6, 6, 43)     0           ['batch_normalization_254[0][0]']

 re_lu_54 (ReLU)                (None, 6, 6, 43)     0           ['batch_normalization_257[0][0]']

 re_lu_55 (ReLU)                (None, 6, 6, 43)     0           ['batch_normalization_258[0][0]']

 concatenate_7 (Concatenate)    (None, 6, 6, 172)    0           ['re_lu_49[0][0]',
                                                                  're_lu_51[0][0]',
                                                                  're_lu_54[0][0]',
                                                                  're_lu_55[0][0]']

 global_average_pooling2d (Glob  (None, 172)         0           ['concatenate_7[0][0]']
 alAveragePooling2D)

 dense (Dense)                  (None, 39)           6747        ['global_average_pooling2d[0][0]'
                                                                 ]

 dropout (Dropout)              (None, 39)           0           ['dense[0][0]']

 dense_1 (Dense)                (None, 1)            40          ['dropout[0][0]']

==================================================================================================
Total params: 54,636,654
Trainable params: 299,316
Non-trainable params: 54,337,338
__________________________________________________________________________________________________
Number of batches in validation dataset: 8
Validation batch shape: (16, 256, 256, 3), Label shape: (16,)
…
