…
WARNING:tensorflow:`input_shape` is undefined or non-square, or `rows` is not in [128, 160, 192, 224]. Weights for input shape (224, 224) will be loaded as the default.
(None, 256, 256, 3)
(None, 8, 8, 512)
----------------------------------------------------------------------------------------
Starting training mobilenet_like
Model: "mobilenet_like"
_________________________________________________________________
 Layer (type)                Output Shape              Param #
=================================================================
 input_2 (InputLayer)        [(None, 256, 256, 3)]     0

 mobilenet_1.00_224 (Functio  (None, 8, 8, 1024)       3228864
 nal)

 depthwise_conv2d (Depthwise  (None, 8, 8, 1024)       9216
 Conv2D)

 batch_normalization (BatchN  (None, 8, 8, 1024)       4096
 ormalization)

 re_lu (ReLU)                (None, 8, 8, 1024)        0

 conv2d (Conv2D)             (None, 8, 8, 4)           4096

 batch_normalization_1 (Batc  (None, 8, 8, 4)          16
 hNormalization)

 re_lu_1 (ReLU)              (None, 8, 8, 4)           0

 global_average_pooling2d (G  (None, 4)                0
 lobalAveragePooling2D)

 dense (Dense)               (None, 256)               1280

 dropout (Dropout)           (None, 256)               0

 dense_1 (Dense)             (None, 1)                 257

=================================================================
Total params: 3,247,825
Trainable params: 16,905
Non-trainable params: 3,230,920
_________________________________________________________________
Number of batches in validation dataset: 8
Validation batch shape: (16, 256, 256, 3), Label shape: (16,)
input_2 True
mobilenet_1.00_224 False
depthwise_conv2d True
batch_normalization True
…
Training checkpoint path for mobilenet_like: F:\dl lab\dl-lab-24w-team04-feature\experiments\run_2024-11-30T14-54-06-484790_mobilenet_like\ckpts
Training completed for mobilenet_like
----------------------------------------------------------------------------------------
----------------------------------------------------------------------------------------
Starting training vgg_like
Model: "vgg_like"
_________________________________________________________________
 Layer (type)                Output Shape              Param #
=================================================================
 input_4 (InputLayer)        [(None, 256, 256, 3)]     0

 vgg16 (Functional)          (None, 8, 8, 512)         14714688

 conv2d_11 (Conv2D)          (None, 8, 8, 23)          106007

 max_pooling2d_10 (MaxPoolin  (None, 4, 4, 23)         0
 g2D)

 conv2d_12 (Conv2D)          (None, 4, 4, 23)          4784

 max_pooling2d_11 (MaxPoolin  (None, 2, 2, 23)         0
 g2D)

 global_average_pooling2d_1   (None, 23)               0
 (GlobalAveragePooling2D)

 dense_2 (Dense)             (None, 21)                504

 leaky_re_lu (LeakyReLU)     (None, 21)                0

 dropout_1 (Dropout)         (None, 21)                0

 dense_3 (Dense)             (None, 1)                 22

=================================================================
Total params: 14,826,005
Trainable params: 111,317
Non-trainable params: 14,714,688
_________________________________________________________________
Number of batches in validation dataset: 8
Validation batch shape: (16, 256, 256, 3), Label shape: (16,)
input_4 True
vgg16 False
conv2d_11 True
max_pooling2d_10 True
conv2d_12 True
max_pooling2d_11 True
…
----------------------------------------------------------------------------------------
----------------------------------------------------------------------------------------
Starting training inception_v2_like
Model: "inception_v2_like"
__________________________________________________________________________________________________
 Layer (type)                   Output Shape         Param #     Connected to
==================================================================================================
 input_6 (InputLayer)           [(None, 256, 256, 3  0           []
                                )]

 inception_resnet_v2 (Functiona  (None, 6, 6, 1536)  54336736    ['input_6[0][0]']
 l)

 conv2d_226 (Conv2D)            (None, 6, 6, 5)      7680        ['inception_resnet_v2[0][0]']

 batch_normalization_215 (Batch  (None, 6, 6, 5)     20          ['conv2d_226[0][0]']
 Normalization)

 re_lu_12 (ReLU)                (None, 6, 6, 5)      0           ['batch_normalization_215[0][0]']

 conv2d_224 (Conv2D)            (None, 6, 6, 5)      7680        ['inception_resnet_v2[0][0]']

 conv2d_227 (Conv2D)            (None, 6, 6, 5)      75          ['re_lu_12[0][0]']

 batch_normalization_213 (Batch  (None, 6, 6, 5)     20          ['conv2d_224[0][0]']
 Normalization)

 batch_normalization_216 (Batch  (None, 6, 6, 5)     20          ['conv2d_227[0][0]']
 Normalization)

 re_lu_10 (ReLU)                (None, 6, 6, 5)      0           ['batch_normalization_213[0][0]']

 re_lu_13 (ReLU)                (None, 6, 6, 5)      0           ['batch_normalization_216[0][0]']

 max_pooling2d_17 (MaxPooling2D  (None, 6, 6, 1536)  0           ['inception_resnet_v2[0][0]']
 )

 conv2d_223 (Conv2D)            (None, 6, 6, 5)      7680        ['inception_resnet_v2[0][0]']

 conv2d_225 (Conv2D)            (None, 6, 6, 5)      225         ['re_lu_10[0][0]']

 conv2d_228 (Conv2D)            (None, 6, 6, 5)      75          ['re_lu_13[0][0]']

 conv2d_229 (Conv2D)            (None, 6, 6, 5)      7680        ['max_pooling2d_17[0][0]']

 batch_normalization_212 (Batch  (None, 6, 6, 5)     20          ['conv2d_223[0][0]']
 Normalization)

 batch_normalization_214 (Batch  (None, 6, 6, 5)     20          ['conv2d_225[0][0]']
 Normalization)

 batch_normalization_217 (Batch  (None, 6, 6, 5)     20          ['conv2d_228[0][0]']
 Normalization)

 batch_normalization_218 (Batch  (None, 6, 6, 5)     20          ['conv2d_229[0][0]']
 Normalization)

 re_lu_9 (ReLU)                 (None, 6, 6, 5)      0           ['batch_normalization_212[0][0]']

 re_lu_11 (ReLU)                (None, 6, 6, 5)      0           ['batch_normalization_214[0][0]']

 re_lu_14 (ReLU)                (None, 6, 6, 5)      0           ['batch_normalization_217[0][0]']

 re_lu_15 (ReLU)                (None, 6, 6, 5)      0           ['batch_normalization_218[0][0]']

 concatenate_1 (Concatenate)    (None, 6, 6, 20)     0           ['re_lu_9[0][0]',
                                                                  're_lu_11[0][0]',
                                                                  're_lu_14[0][0]',
                                                                  're_lu_15[0][0]']

 global_average_pooling2d_2 (Gl  (None, 20)          0           ['concatenate_1[0][0]']
 obalAveragePooling2D)

 dense_4 (Dense)                (None, 256)          5376        ['global_average_pooling2d_2[0][0
                                                                 ]']

 dropout_2 (Dropout)            (None, 256)          0           ['dense_4[0][0]']

 dense_5 (Dense)                (None, 1)            257         ['dropout_2[0][0]']

==================================================================================================
Total params: 54,373,604
Trainable params: 36,798
Non-trainable params: 54,336,806
__________________________________________________________________________________________________
Number of batches in validation dataset: 8
Validation batch shape: (16, 256, 256, 3), Label shape: (16,)
…
