…
WARNING:tensorflow:`input_shape` is undefined or non-square, or `rows` is not in [128, 160, 192, 224]. Weights for input shape (224, 224) will be loaded as the default.
W1125 19:48:35.191179 25944 mobilenet.py:241] `input_shape` is undefined or non-square, or `rows` is not in [128, 160, 192, 224]. Weights for input shape (224, 224) will be loaded as the default.
Model: "mobile_like"
_________________________________________________________________
 Layer (type)                Output Shape              Param #
=================================================================
 input_2 (InputLayer)        [(None, 256, 256, 3)]     0

 depthwise_conv2d (Depthwise  (None, 256, 256, 3)      27
 Conv2D)

 batch_normalization (BatchN  (None, 256, 256, 3)      12
 ormalization)

 re_lu (ReLU)                (None, 256, 256, 3)       0

 conv2d (Conv2D)             (None, 256, 256, 16)      48

 batch_normalization_1 (Batc  (None, 256, 256, 16)     64
 hNormalization)

 re_lu_1 (ReLU)              (None, 256, 256, 16)      0

 depthwise_conv2d_1 (Depthwi  (None, 256, 256, 16)     144
 seConv2D)

 batch_normalization_2 (Batc  (None, 256, 256, 16)     64
 hNormalization)

 re_lu_2 (ReLU)              (None, 256, 256, 16)      0

 conv2d_1 (Conv2D)           (None, 256, 256, 16)      256

 batch_normalization_3 (Batc  (None, 256, 256, 16)     64
 hNormalization)

 re_lu_3 (ReLU)              (None, 256, 256, 16)      0

 depthwise_conv2d_2 (Depthwi  (None, 256, 256, 16)     144
 seConv2D)

 batch_normalization_4 (Batc  (None, 256, 256, 16)     64
 hNormalization)

 re_lu_4 (ReLU)              (None, 256, 256, 16)      0

 conv2d_2 (Conv2D)           (None, 256, 256, 16)      256

 batch_normalization_5 (Batc  (None, 256, 256, 16)     64
 hNormalization)

 re_lu_5 (ReLU)              (None, 256, 256, 16)      0

 depthwise_conv2d_3 (Depthwi  (None, 256, 256, 16)     144
 seConv2D)

 batch_normalization_6 (Batc  (None, 256, 256, 16)     64
 hNormalization)

 re_lu_6 (ReLU)              (None, 256, 256, 16)      0

 conv2d_3 (Conv2D)           (None, 256, 256, 16)      256

 batch_normalization_7 (Batc  (None, 256, 256, 16)     64
 hNormalization)

 re_lu_7 (ReLU)              (None, 256, 256, 16)      0

 global_average_pooling2d (G  (None, 16)               0
 lobalAveragePooling2D)

 dense (Dense)               (None, 16)                272

 dropout (Dropout)           (None, 16)                0

 dense_1 (Dense)             (None, 1)                 17

=================================================================
Total params: 2,024
Trainable params: 1,794
Non-trainable params: 230
_________________________________________________________________
Training checkpoint path: F:\dl lab\dl-lab-24w-team04-feature\experiments\run_2024-11-25T19-48-32-511703\ckpts
Number of batches in validation dataset: 7
Validation batch shape: (16, 256, 256, 3), Label shape: (16,)
