…
WARNING:tensorflow:Using a while_loop for converting AdjustContrastv2 cause Input "contrast_factor" of op 'AdjustContrastv2' expected to be loop invariant.
W1128 19:36:22.114835 47764 pfor.py:1082] Using a while_loop for converting AdjustContrastv2 cause Input "contrast_factor" of op 'AdjustContrastv2' expected to be loop invariant.
(None, 256, 256, 3)
(None, 8, 8, 512)
Model: "vgg_like"
_________________________________________________________________
 Layer (type)                Output Shape              Param #
=================================================================
 input_2 (InputLayer)        [(None, 256, 256, 3)]     0

 vgg16 (Functional)          (None, 8, 8, 512)         14714688

 conv2d (Conv2D)             (None, 8, 8, 3)           13827

 max_pooling2d (MaxPooling2D  (None, 4, 4, 3)          0
 )

 conv2d_1 (Conv2D)           (None, 4, 4, 3)           84

 max_pooling2d_1 (MaxPooling  (None, 2, 2, 3)          0
 2D)

 global_average_pooling2d (G  (None, 3)                0
 lobalAveragePooling2D)

 dense (Dense)               (None, 128)               512

 leaky_re_lu (LeakyReLU)     (None, 128)               0

 dropout (Dropout)           (None, 128)               0

 dense_1 (Dense)             (None, 1)                 129

=================================================================
Total params: 14,729,240
Trainable params: 14,552
Non-trainable params: 14,714,688
_________________________________________________________________
Restoring from checkpoint: F:\dl lab\dl-lab-24w-team04-feature\experiments\run_2024-11-28T19-35-02-198515\ckpts\ckpt-1
Raw predictions for batch 0: [[0.1031896]]
Raw predictions for batch 1: [[0.46776706]]
…
