…
WARNING:tensorflow:Using a while_loop for converting StatelessRandomUniformV2 cause there is no registered converter for this op.
WARNING:tensorflow:Using a while_loop for converting AdjustContrastv2 cause Input "contrast_factor" of op 'AdjustContrastv2' expected to be loop invariant.
(None, 256, 256, 3)
(None, 8, 8, 512)
Model: "vgg_like"
_________________________________________________________________
 Layer (type)                Output Shape              Param #
=================================================================
 input_2 (InputLayer)        [(None, 256, 256, 3)]     0

 vgg16 (Functional)          (None, 8, 8, 512)         14714688

 conv2d_10 (Conv2D)          (None, 8, 8, 37)          170533

 max_pooling2d_10 (MaxPoolin  (None, 4, 4, 37)         0
 g2D)

 conv2d_11 (Conv2D)          (None, 4, 4, 37)          12358

 max_pooling2d_11 (MaxPoolin  (None, 2, 2, 37)         0
 g2D)

 global_average_pooling2d (G  (None, 37)               0
 lobalAveragePooling2D)

 dense (Dense)               (None, 245)               9310

 leaky_re_lu (LeakyReLU)     (None, 245)               0

 dropout (Dropout)           (None, 245)               0

 dense_1 (Dense)             (None, 1)                 246

=================================================================
Total params: 14,907,135
Trainable params: 192,447
Non-trainable params: 14,714,688
_________________________________________________________________
Number of batches in validation dataset: 8
Validation batch shape: (16, 256, 256, 3), Label shape: (16,)
Training checkpoint path: F:\dl lab\dl-lab-24w-team04-feature\experiments\run_2024-11-30T14-27-09-232190_vgg_like\ckpts
