…
W1204 08:23:44.080872 18500 mobilenet.py:241] `input_shape` is undefined or non-square, or `rows` is not in [128, 160, 192, 224]. Weights for input shape (224, 224) will be loaded as the default.
(None, 256, 256, 3)
(None, 8, 8, 512)
----------------------------------------------------------------------------------------
Starting training mobilenet_like
Model: "mobilenet_like"
_________________________________________________________________
 Layer (type)                Output Shape              Param #
=================================================================
 input_2 (InputLayer)        [(None, 256, 256, 3)]     0

 mobilenet_1.00_224 (Functio  (None, 8, 8, 1024)       3228864
 nal)

 depthwise_conv2d_6 (Depthwi  (None, 8, 8, 1024)       9216
 seConv2D)

 batch_normalization_12 (Bat  (None, 8, 8, 1024)       4096
 chNormalization)

 re_lu_12 (ReLU)             (None, 8, 8, 1024)        0

 conv2d_6 (Conv2D)           (None, 8, 8, 63)          64512

 batch_normalization_13 (Bat  (None, 8, 8, 63)         252
 chNormalization)

 re_lu_13 (ReLU)             (None, 8, 8, 63)          0

 global_average_pooling2d (G  (None, 63)               0
 lobalAveragePooling2D)

 dense (Dense)               (None, 150)               9600

 dropout (Dropout)           (None, 150)               0

 dense_1 (Dense)             (None, 1)                 151

=================================================================
Total params: 3,316,691
Trainable params: 85,653
Non-trainable params: 3,231,038
_________________________________________________________________
Number of batches in validation dataset: 8
Validation batch shape: (16, 256, 256, 3), Label shape: (16,)
input_2 True
mobilenet_1.00_224 False
depthwise_conv2d_6 True
batch_normalization_12 True
…
Training checkpoint path for mobilenet_like: F:\DL_lab\experiments\run_2024-12-04T08-23-41-387878_mobilenet_like\ckpts
Training completed for mobilenet_like
----------------------------------------------------------------------------------------
----------------------------------------------------------------------------------------
Starting training vgg_like
Model: "vgg_like"
_________________________________________________________________
 Layer (type)                Output Shape              Param #
=================================================================
 input_4 (InputLayer)        [(None, 256, 256, 3)]     0

 vgg16 (Functional)          (None, 8, 8, 512)         14714688

 conv2d_11 (Conv2D)          (None, 8, 8, 83)          382547

 max_pooling2d_4 (MaxPooling  (None, 4, 4, 83)         0
 2D)

 conv2d_12 (Conv2D)          (None, 4, 4, 83)          62084

 max_pooling2d_5 (MaxPooling  (None, 2, 2, 83)         0
 2D)

 global_average_pooling2d_1   (None, 83)               0
 (GlobalAveragePooling2D)

 dense_2 (Dense)             (None, 113)               9492

 leaky_re_lu (LeakyReLU)     (None, 113)               0

 dropout_1 (Dropout)         (None, 113)               0

 dense_3 (Dense)             (None, 1)                 114

=================================================================
Total params: 15,168,925
Trainable params: 454,237
Non-trainable params: 14,714,688
_________________________________________________________________
Number of batches in validation dataset: 8
Validation batch shape: (16, 256, 256, 3), Label shape: (16,)
input_4 True
vgg16 False
conv2d_11 True
max_pooling2d_4 True
conv2d_12 True
max_pooling2d_5 True
…
