…
WARNING:tensorflow:Using a while_loop for converting AdjustContrastv2 cause Input "contrast_factor" of op 'AdjustContrastv2' expected to be loop invariant.
W1127 17:59:53.913990 34112 pfor.py:1082] Using a while_loop for converting AdjustContrastv2 cause Input "contrast_factor" of op 'AdjustContrastv2' expected to be loop invariant.
Model: "vgg_like"
_________________________________________________________________
 Layer (type)                Output Shape              Param #
=================================================================
 input_2 (InputLayer)        [(None, 256, 256, 3)]     0

 conv2d (Conv2D)             (None, 256, 256, 6)       168

 max_pooling2d (MaxPooling2D  (None, 128, 128, 6)      0
 )

 conv2d_1 (Conv2D)           (None, 128, 128, 6)       330

 max_pooling2d_1 (MaxPooling  (None, 64, 64, 6)        0
 2D)

 global_average_pooling2d (G  (None, 6)                0
 lobalAveragePooling2D)

 dense (Dense)               (None, 128)               896

 leaky_re_lu (LeakyReLU)     (None, 128)               0

 dropout (Dropout)           (None, 128)               0

 dense_1 (Dense)             (None, 1)                 129

=================================================================
Total params: 1,523
Trainable params: 1,523
Non-trainable params: 0
_________________________________________________________________
Number of batches in validation dataset: 8
Validation batch shape: (16, 256, 256, 3), Label shape: (16,)
input_2 True
conv2d True
max_pooling2d True
conv2d_1 True
max_pooling2d_1 True
global_average_pooling2d True
…
