…
WARNING:tensorflow:`input_shape` is undefined or non-square, or `rows` is not in [128, 160, 192, 224]. Weights for input shape (224, 224) will be loaded as the default.
W1129 18:05:36.859317 24212 mobilenet.py:241] `input_shape` is undefined or non-square, or `rows` is not in [128, 160, 192, 224]. Weights for input shape (224, 224) will be loaded as the default.
(None, 256, 256, 3)
(None, 8, 8, 512)
Model: "mobile_like"
_________________________________________________________________
 Layer (type)                Output Shape              Param #
=================================================================
 input_2 (InputLayer)        [(None, 256, 256, 3)]     0

 mobilenet_1.00_224 (Functio  (None, 8, 8, 1024)       3228864
 nal)

 depthwise_conv2d (Depthwise  (None, 8, 8, 1024)       9216
 Conv2D)

 batch_normalization (BatchN  (None, 8, 8, 1024)       4096
 ormalization)

 re_lu (ReLU)                (None, 8, 8, 1024)        0

 conv2d (Conv2D)             (None, 8, 8, 3)           3072

 batch_normalization_1 (Batc  (None, 8, 8, 3)          12
 hNormalization)

 re_lu_1 (ReLU)              (None, 8, 8, 3)           0

 global_average_pooling2d (G  (None, 3)                0
 lobalAveragePooling2D)

 dense (Dense)               (None, 64)                256

 dropout (Dropout)           (None, 64)                0

 dense_1 (Dense)             (None, 1)                 65

=================================================================
Total params: 3,245,581
Trainable params: 14,663
Non-trainable params: 3,230,918
_________________________________________________________________
Model: "vgg_like"
_________________________________________________________________
 Layer (type)                Output Shape              Param #
=================================================================
 input_4 (InputLayer)        [(None, 256, 256, 3)]     0

 vgg16 (Functional)          (None, 8, 8, 512)         14714688

 conv2d_1 (Conv2D)           (None, 8, 8, 3)           13827

 max_pooling2d (MaxPooling2D  (None, 4, 4, 3)          0
 )

 conv2d_2 (Conv2D)           (None, 4, 4, 3)           84

 max_pooling2d_1 (MaxPooling  (None, 2, 2, 3)          0
 2D)

 global_average_pooling2d_1   (None, 3)                0
 (GlobalAveragePooling2D)

 dense_2 (Dense)             (None, 64)                256

 leaky_re_lu (LeakyReLU)     (None, 64)                0

 dropout_1 (Dropout)         (None, 64)                0

 dense_3 (Dense)             (None, 1)                 65

=================================================================
Total params: 14,728,920
Trainable params: 14,232
Non-trainable params: 14,714,688
_________________________________________________________________
----------------------------------------------------------------------------------------
Starting training mobilenet_like
Number of batches in validation dataset: 8
Validation batch shape: (16, 256, 256, 3), Label shape: (16,)
…
