…
WARNING:tensorflow:Using a while_loop for converting AdjustContrastv2 cause Input "contrast_factor" of op 'AdjustContrastv2' expected to be loop invariant.
(None, 256, 256, 3)
(None, 8, 8, 512)
----------------------------------------------------------------------------------------
Starting training vgg_like
Model: "vgg_like"
_________________________________________________________________
 Layer (type)                Output Shape              Param #
=================================================================
 input_2 (InputLayer)        [(None, 256, 256, 3)]     0

 vgg16 (Functional)          (None, 8, 8, 512)         14714688

 conv2d_6 (Conv2D)           (None, 8, 8, 51)          235059

 max_pooling2d_6 (MaxPooling  (None, 4, 4, 51)         0
 2D)

 conv2d_7 (Conv2D)           (None, 4, 4, 51)          23460

 max_pooling2d_7 (MaxPooling  (None, 2, 2, 51)         0
 2D)

 global_average_pooling2d (G  (None, 51)               0
 lobalAveragePooling2D)

 dense (Dense)               (None, 216)               11232

 leaky_re_lu (LeakyReLU)     (None, 216)               0

 dropout (Dropout)           (None, 216)               0

 dense_1 (Dense)             (None, 1)                 217

=================================================================
Total params: 14,984,656
Trainable params: 269,968
Non-trainable params: 14,714,688
_________________________________________________________________
Number of batches in validation dataset: 8
Validation batch shape: (16, 256, 256, 3), Label shape: (16,)
input_2 True
vgg16 False
conv2d_6 True
max_pooling2d_6 True
conv2d_7 True
max_pooling2d_7 True
…
