…
WARNING:tensorflow:Using a while_loop for converting AdjustContrastv2 cause Input "contrast_factor" of op 'AdjustContrastv2' expected to be loop invariant.
W1123 20:05:38.640479 27604 pfor.py:1082] Using a while_loop for converting AdjustContrastv2 cause Input "contrast_factor" of op 'AdjustContrastv2' expected to be loop invariant.
Model: "vgg_like"
_________________________________________________________________
 Layer (type)                Output Shape              Param #
=================================================================
 input_2 (InputLayer)        [(None, 256, 256, 3)]     0

 conv2d (Conv2D)             (None, 256, 256, 8)       224

 conv2d_1 (Conv2D)           (None, 256, 256, 8)       584

 max_pooling2d (MaxPooling2D  (None, 128, 128, 8)      0
 )

 global_average_pooling2d (G  (None, 8)                0
 lobalAveragePooling2D)

 dense (Dense)               (None, 32)                288

 dropout (Dropout)           (None, 32)                0

 dense_1 (Dense)             (None, 1)                 33

=================================================================
Total params: 1,129
Trainable params: 1,129
Non-trainable params: 0
_________________________________________________________________
Training checkpoint path: F:\dl lab\dl-lab-24w-team04-feature\experiments\run_2024-11-23T20-05-36-598001\ckpts
Number of batches in validation dataset: 7
Validation batch shape: (16, 256, 256, 3), Label shape: (16,)
…
