…
WARNING:tensorflow:Using a while_loop for converting AdjustContrastv2 cause Input "contrast_factor" of op 'AdjustContrastv2' expected to be loop invariant.
----------------------------------------------------------------------------------------
Starting training inception_v2_like
Model: "inception_v2_like"
__________________________________________________________________________________________________
 Layer (type)                   Output Shape         Param #     Connected to
==================================================================================================
 input_2 (InputLayer)           [(None, 256, 256, 3  0           []
                                )]

 inception_resnet_v2 (Functiona  (None, 6, 6, 1536)  54336736    ['input_2[0][0]']
 l)

 conv2d_241 (Conv2D)            (None, 6, 6, 23)     35328       ['inception_resnet_v2[0][0]']

 batch_normalization_241 (Batch  (None, 6, 6, 23)    92          ['conv2d_241[0][0]']
 Normalization)

 re_lu_38 (ReLU)                (None, 6, 6, 23)     0           ['batch_normalization_241[0][0]']

 conv2d_239 (Conv2D)            (None, 6, 6, 23)     35328       ['inception_resnet_v2[0][0]']

 conv2d_242 (Conv2D)            (None, 6, 6, 23)     1587        ['re_lu_38[0][0]']

 batch_normalization_239 (Batch  (None, 6, 6, 23)    92          ['conv2d_239[0][0]']
 Normalization)

 batch_normalization_242 (Batch  (None, 6, 6, 23)    92          ['conv2d_242[0][0]']
 Normalization)

 re_lu_36 (ReLU)                (None, 6, 6, 23)     0           ['batch_normalization_239[0][0]']

 re_lu_39 (ReLU)                (None, 6, 6, 23)     0           ['batch_normalization_242[0][0]']

 max_pooling2d_9 (MaxPooling2D)  (None, 6, 6, 1536)  0           ['inception_resnet_v2[0][0]']

 conv2d_238 (Conv2D)            (None, 6, 6, 23)     35328       ['inception_resnet_v2[0][0]']

 conv2d_240 (Conv2D)            (None, 6, 6, 23)     4761        ['re_lu_36[0][0]']

 conv2d_243 (Conv2D)            (None, 6, 6, 23)     1587        ['re_lu_39[0][0]']

 conv2d_244 (Conv2D)            (None, 6, 6, 23)     35328       ['max_pooling2d_9[0][0]']

 batch_normalization_238 (Batch  (None, 6, 6, 23)    92          ['conv2d_238[0][0]']
 Normalization)

 batch_normalization_240 (Batch  (None, 6, 6, 23)    92          ['conv2d_240[0][0]']
 Normalization)

 batch_normalization_243 (Batch  (None, 6, 6, 23)    92          ['conv2d_243[0][0]']
 Normalization)

 batch_normalization_244 (Batch  (None, 6, 6, 23)    92          ['conv2d_244[0][0]']
 Normalization)

 re_lu_35 (ReLU)                (None, 6, 6, 23)     0           ['batch_normalization_238[0][0]']

 re_lu_37 (ReLU)                (None, 6, 6, 23)     0           ['batch_normalization_240[0][0]']

 re_lu_40 (ReLU)                (None, 6, 6, 23)     0           ['batch_normalization_243[0][0]']

 re_lu_41 (ReLU)                (None, 6, 6, 23)     0           ['batch_normalization_244[0][0]']

 concatenate_5 (Concatenate)    (None, 6, 6, 92)     0           ['re_lu_35[0][0]',
                                                                  're_lu_37[0][0]',
                                                                  're_lu_40[0][0]',
                                                                  're_lu_41[0][0]']

 global_average_pooling2d (Glob  (None, 92)          0           ['concatenate_5[0][0]']
 alAveragePooling2D)

 dense (Dense)                  (None, 233)          21669       ['global_average_pooling2d[0][0]'
                                                                 ]

 dropout (Dropout)              (None, 233)          0           ['dense[0][0]']

 dense_1 (Dense)                (None, 1)            234         ['dropout[0][0]']

==================================================================================================
Total params: 54,508,530
Trainable params: 171,472
Non-trainable params: 54,337,058
__________________________________________________________________________________________________
Number of batches in validation dataset: 8
Validation batch shape: (16, 256, 256, 3), Label shape: (16,)
…
