…
WARNING:tensorflow:Using a while_loop for converting AdjustContrastv2 cause Input "contrast_factor" of op 'AdjustContrastv2' expected to be loop invariant.
WARNING:tensorflow:`input_shape` is undefined or non-square, or `rows` is not in [128, 160, 192, 224]. Weights for input shape (224, 224) will be loaded as the default.
----------------------------------------------------------------------------------------
Starting training mobilenet_like
Model: "mobilenet_like"
_________________________________________________________________
 Layer (type)                Output Shape              Param #
=================================================================
 input_2 (InputLayer)        [(None, 256, 256, 3)]     0

 mobilenet_1.00_224 (Functio  (None, 8, 8, 1024)       3228864
 nal)

 depthwise_conv2d_7 (Depthwi  (None, 8, 8, 1024)       9216
 seConv2D)

 batch_normalization_14 (Bat  (None, 8, 8, 1024)       4096
 chNormalization)

 re_lu_14 (ReLU)             (None, 8, 8, 1024)        0

 conv2d_7 (Conv2D)           (None, 8, 8, 29)          29696

 batch_normalization_15 (Bat  (None, 8, 8, 29)         116
 chNormalization)

 re_lu_15 (ReLU)             (None, 8, 8, 29)          0

 global_average_pooling2d (G  (None, 29)               0
 lobalAveragePooling2D)

 dense (Dense)               (None, 162)               4860

 dropout (Dropout)           (None, 162)               0

 dense_1 (Dense)             (None, 1)                 163

=================================================================
Total params: 3,277,011
Trainable params: 46,041
Non-trainable params: 3,230,970
_________________________________________________________________
Number of batches in validation dataset: 8
Validation batch shape: (16, 256, 256, 3), Label shape: (16,)
input_2 True
mobilenet_1.00_224 False
depthwise_conv2d_7 True
batch_normalization_14 True
…
