…
WARNING:tensorflow:Using a while_loop for converting AdjustContrastv2 cause Input "contrast_factor" of op 'AdjustContrastv2' expected to be loop invariant.
W1127 13:51:14.318378 11712 pfor.py:1082] Using a while_loop for converting AdjustContrastv2 cause Input "contrast_factor" of op 'AdjustContrastv2' expected to be loop invariant.
Model: "vgg_like"
_________________________________________________________________
 Layer (type)                Output Shape              Param #
=================================================================
 input_2 (InputLayer)        [(None, 256, 256, 3)]     0

 conv2d (Conv2D)             (None, 256, 256, 10)      280

 max_pooling2d (MaxPooling2D  (None, 128, 128, 10)     0
 )

 conv2d_1 (Conv2D)           (None, 128, 128, 10)      910

 max_pooling2d_1 (MaxPooling  (None, 64, 64, 10)       0
 2D)

 global_average_pooling2d (G  (None, 10)               0
 lobalAveragePooling2D)

 dense (Dense)               (None, 256)               2816

 leaky_re_lu (LeakyReLU)     (None, 256)               0

 dropout (Dropout)           (None, 256)               0

 dense_1 (Dense)             (None, 1)                 257

=================================================================
Total params: 4,263
Trainable params: 4,263
Non-trainable params: 0
_________________________________________________________________
Training checkpoint path: F:\dl lab\dl-lab-24w-team04-feature\experiments\run_2024-11-27T13-51-12-208394\ckpts
Number of batches in validation dataset: 8
Validation batch shape: (16, 256, 256, 3), Label shape: (16,)
…
