…
WARNING:tensorflow:Using a while_loop for converting StatelessRandomUniformV2 cause there is no registered converter for this op.
WARNING:tensorflow:Using a while_loop for converting AdjustContrastv2 cause Input "contrast_factor" of op 'AdjustContrastv2' expected to be loop invariant.
(None, 256, 256, 3)
(None, 8, 8, 512)
Model: "vgg_like"
_________________________________________________________________
 Layer (type)                Output Shape              Param #
=================================================================
 input_2 (InputLayer)        [(None, 256, 256, 3)]     0

 vgg16 (Functional)          (None, 8, 8, 512)         14714688

 conv2d_8 (Conv2D)           (None, 8, 8, 22)          101398

 max_pooling2d_8 (MaxPooling  (None, 4, 4, 22)         0
 2D)

 conv2d_9 (Conv2D)           (None, 4, 4, 22)          4378

 max_pooling2d_9 (MaxPooling  (None, 2, 2, 22)         0
 2D)

 global_average_pooling2d (G  (None, 22)               0
 lobalAveragePooling2D)

 dense (Dense)               (None, 17)                391

 leaky_re_lu (LeakyReLU)     (None, 17)                0

 dropout (Dropout)           (None, 17)                0

 dense_1 (Dense)             (None, 1)                 18

=================================================================
Total params: 14,820,873
Trainable params: 106,185
Non-trainable params: 14,714,688
_________________________________________________________________
Number of batches in validation dataset: 8
Validation batch shape: (16, 256, 256, 3), Label shape: (16,)
Training checkpoint path: F:\dl lab\dl-lab-24w-team04-feature\experiments\run_2024-11-29T19-16-22-204120_vgg_like\ckpts
