…
W1129 18:52:30.915030 12988 mobilenet.py:241] `input_shape` is undefined or non-square, or `rows` is not in [128, 160, 192, 224]. Weights for input shape (224, 224) will be loaded as the default.
(None, 256, 256, 3)
(None, 8, 8, 512)
----------------------------------------------------------------------------------------
Starting training mobilenet_like
Model: "mobilenet_like"
_________________________________________________________________
 Layer (type)                Output Shape              Param #
=================================================================
 input_2 (InputLayer)        [(None, 256, 256, 3)]     0

 mobilenet_1.00_224 (Functio  (None, 8, 8, 1024)       3228864
 nal)

 depthwise_conv2d_1 (Depthwi  (None, 8, 8, 1024)       9216
 seConv2D)

 batch_normalization_2 (Batc  (None, 8, 8, 1024)       4096
 hNormalization)

 re_lu_2 (ReLU)              (None, 8, 8, 1024)        0

 conv2d_1 (Conv2D)           (None, 8, 8, 5)           5120

 batch_normalization_3 (Batc  (None, 8, 8, 5)          20
 hNormalization)

 re_lu_3 (ReLU)              (None, 8, 8, 5)           0

 global_average_pooling2d (G  (None, 5)                0
 lobalAveragePooling2D)

 dense (Dense)               (None, 128)               768

 dropout (Dropout)           (None, 128)               0

 dense_1 (Dense)             (None, 1)                 129

=================================================================
Total params: 3,248,213
Trainable params: 17,291
Non-trainable params: 3,230,922
_________________________________________________________________
Number of batches in validation dataset: 8
Validation batch shape: (16, 256, 256, 3), Label shape: (16,)
input_2 True
mobilenet_1.00_224 False
depthwise_conv2d_1 True
batch_normalization_2 True
…
Training checkpoint path for mobilenet_like: F:\dl lab\dl-lab-24w-team04-feature\experiments\run_2024-11-29T18-52-28-297054_mobilenet_like\ckpts
Training completed for mobilenet_like
----------------------------------------------------------------------------------------
----------------------------------------------------------------------------------------
Starting training vgg_like
Model: "vgg_like"
_________________________________________________________________
 Layer (type)                Output Shape              Param #
=================================================================
 input_4 (InputLayer)        [(None, 256, 256, 3)]     0

 vgg16 (Functional)          (None, 8, 8, 512)         14714688

 conv2d_4 (Conv2D)           (None, 8, 8, 5)           23045

 max_pooling2d_2 (MaxPooling  (None, 4, 4, 5)          0
 2D)

 conv2d_5 (Conv2D)           (None, 4, 4, 5)           230

 max_pooling2d_3 (MaxPooling  (None, 2, 2, 5)          0
 2D)

 global_average_pooling2d_1   (None, 5)                0
 (GlobalAveragePooling2D)

 dense_2 (Dense)             (None, 128)               768

 leaky_re_lu (LeakyReLU)     (None, 128)               0

 dropout_1 (Dropout)         (None, 128)               0

 dense_3 (Dense)             (None, 1)                 129

=================================================================
Total params: 14,738,860
Trainable params: 24,172
Non-trainable params: 14,714,688
_________________________________________________________________
Number of batches in validation dataset: 8
Validation batch shape: (16, 256, 256, 3), Label shape: (16,)
input_4 True
vgg16 False
conv2d_4 True
max_pooling2d_2 True
conv2d_5 True
max_pooling2d_3 True
…
----------------------------------------------------------------------------------------
----------------------------------------------------------------------------------------
Starting training inception_v2_like
Model: "inception_v2_like"
__________________________________________________________________________________________________
 Layer (type)                   Output Shape         Param #     Connected to
==================================================================================================
 input_6 (InputLayer)           [(None, 256, 256, 3  0           []
                                )]

 inception_resnet_v2 (Functiona  (None, 6, 6, 1536)  54336736    ['input_6[0][0]']
 l)

 conv2d_219 (Conv2D)            (None, 6, 6, 5)      7680        ['inception_resnet_v2[0][0]']

 batch_normalization_217 (Batch  (None, 6, 6, 5)     20          ['conv2d_219[0][0]']
 Normalization)

 re_lu_14 (ReLU)                (None, 6, 6, 5)      0           ['batch_normalization_217[0][0]']

 conv2d_217 (Conv2D)            (None, 6, 6, 5)      7680        ['inception_resnet_v2[0][0]']

 conv2d_220 (Conv2D)            (None, 6, 6, 5)      75          ['re_lu_14[0][0]']

 batch_normalization_215 (Batch  (None, 6, 6, 5)     20          ['conv2d_217[0][0]']
 Normalization)

 batch_normalization_218 (Batch  (None, 6, 6, 5)     20          ['conv2d_220[0][0]']
 Normalization)

 re_lu_12 (ReLU)                (None, 6, 6, 5)      0           ['batch_normalization_215[0][0]']

 re_lu_15 (ReLU)                (None, 6, 6, 5)      0           ['batch_normalization_218[0][0]']

 max_pooling2d_9 (MaxPooling2D)  (None, 6, 6, 1536)  0           ['inception_resnet_v2[0][0]']

 conv2d_216 (Conv2D)            (None, 6, 6, 5)      7680        ['inception_resnet_v2[0][0]']

 conv2d_218 (Conv2D)            (None, 6, 6, 5)      225         ['re_lu_12[0][0]']

 conv2d_221 (Conv2D)            (None, 6, 6, 5)      75          ['re_lu_15[0][0]']

 conv2d_222 (Conv2D)            (None, 6, 6, 5)      7680        ['max_pooling2d_9[0][0]']

 batch_normalization_214 (Batch  (None, 6, 6, 5)     20          ['conv2d_216[0][0]']
 Normalization)

 batch_normalization_216 (Batch  (None, 6, 6, 5)     20          ['conv2d_218[0][0]']
 Normalization)

 batch_normalization_219 (Batch  (None, 6, 6, 5)     20          ['conv2d_221[0][0]']
 Normalization)

 batch_normalization_220 (Batch  (None, 6, 6, 5)     20          ['conv2d_222[0][0]']
 Normalization)

 re_lu_11 (ReLU)                (None, 6, 6, 5)      0           ['batch_normalization_214[0][0]']

 re_lu_13 (ReLU)                (None, 6, 6, 5)      0           ['batch_normalization_216[0][0]']

 re_lu_16 (ReLU)                (None, 6, 6, 5)      0           ['batch_normalization_219[0][0]']

 re_lu_17 (ReLU)                (None, 6, 6, 5)      0           ['batch_normalization_220[0][0]']

 concatenate_1 (Concatenate)    (None, 6, 6, 20)     0           ['re_lu_11[0][0]',
                                                                  're_lu_13[0][0]',
                                                                  're_lu_16[0][0]',
                                                                  're_lu_17[0][0]']

 global_average_pooling2d_2 (Gl  (None, 20)          0           ['concatenate_1[0][0]']
 obalAveragePooling2D)

 dense_4 (Dense)                (None, 128)          2688        ['global_average_pooling2d_2[0][0
                                                                 ]']

 dropout_2 (Dropout)            (None, 128)          0           ['dense_4[0][0]']

 dense_5 (Dense)                (None, 1)            129         ['dropout_2[0][0]']

==================================================================================================
Total params: 54,370,788
Trainable params: 33,982
Non-trainable params: 54,336,806
__________________________________________________________________________________________________
Number of batches in validation dataset: 8
Validation batch shape: (16, 256, 256, 3), Label shape: (16,)
…
