…
WARNING:tensorflow:Using a while_loop for converting AdjustContrastv2 cause Input "contrast_factor" of op 'AdjustContrastv2' expected to be loop invariant.
WARNING:tensorflow:`input_shape` is undefined or non-square, or `rows` is not in [128, 160, 192, 224]. Weights for input shape (224, 224) will be loaded as the default.
----------------------------------------------------------------------------------------
Starting training mobilenet_like
Model: "mobilenet_like"
_________________________________________________________________
 Layer (type)                Output Shape              Param #
=================================================================
 input_2 (InputLayer)        [(None, 256, 256, 3)]     0

 mobilenet_1.00_224 (Functio  (None, 8, 8, 1024)       3228864
 nal)

 depthwise_conv2d_4 (Depthwi  (None, 8, 8, 1024)       9216
 seConv2D)

 batch_normalization_8 (Batc  (None, 8, 8, 1024)       4096
 hNormalization)

 re_lu_8 (ReLU)              (None, 8, 8, 1024)        0

 conv2d_4 (Conv2D)           (None, 8, 8, 81)          82944

 batch_normalization_9 (Batc  (None, 8, 8, 81)         324
 hNormalization)

 re_lu_9 (ReLU)              (None, 8, 8, 81)          0

 global_average_pooling2d (G  (None, 81)               0
 lobalAveragePooling2D)

 dense (Dense)               (None, 65)                5330

 dropout (Dropout)           (None, 65)                0

 dense_1 (Dense)             (None, 1)                 66

=================================================================
Total params: 3,330,840
Trainable params: 99,766
Non-trainable params: 3,231,074
_________________________________________________________________
Number of batches in validation dataset: 8
Validation batch shape: (16, 256, 256, 3), Label shape: (16,)
input_2 True
mobilenet_1.00_224 False
depthwise_conv2d_4 True
batch_normalization_8 True
…
