…
WARNING:tensorflow:Using a while_loop for converting AdjustContrastv2 cause Input "contrast_factor" of op 'AdjustContrastv2' expected to be loop invariant.
----------------------------------------------------------------------------------------
Starting training inception_v2_like
Model: "inception_v2_like"
__________________________________________________________________________________________________
 Layer (type)                   Output Shape         Param #     Connected to
==================================================================================================
 input_2 (InputLayer)           [(None, 256, 256, 3  0           []
                                )]

 inception_resnet_v2 (Functiona  (None, 6, 6, 1536)  54336736    ['input_2[0][0]']
 l)

 conv2d_248 (Conv2D)            (None, 6, 6, 22)     33792       ['inception_resnet_v2[0][0]']

 batch_normalization_248 (Batch  (None, 6, 6, 22)    88          ['conv2d_248[0][0]']
 Normalization)

 re_lu_45 (ReLU)                (None, 6, 6, 22)     0           ['batch_normalization_248[0][0]']

 conv2d_246 (Conv2D)            (None, 6, 6, 22)     33792       ['inception_resnet_v2[0][0]']

 conv2d_249 (Conv2D)            (None, 6, 6, 22)     1452        ['re_lu_45[0][0]']

 batch_normalization_246 (Batch  (None, 6, 6, 22)    88          ['conv2d_246[0][0]']
 Normalization)

 batch_normalization_249 (Batch  (None, 6, 6, 22)    88          ['conv2d_249[0][0]']
 Normalization)

 re_lu_43 (ReLU)                (None, 6, 6, 22)     0           ['batch_normalization_246[0][0]']

 re_lu_46 (ReLU)                (None, 6, 6, 22)     0           ['batch_normalization_249[0][0]']

 max_pooling2d_10 (MaxPooling2D  (None, 6, 6, 1536)  0           ['inception_resnet_v2[0][0]']
 )

 conv2d_245 (Conv2D)            (None, 6, 6, 22)     33792       ['inception_resnet_v2[0][0]']

 conv2d_247 (Conv2D)            (None, 6, 6, 22)     4356        ['re_lu_43[0][0]']

 conv2d_250 (Conv2D)            (None, 6, 6, 22)     1452        ['re_lu_46[0][0]']

 conv2d_251 (Conv2D)            (None, 6, 6, 22)     33792       ['max_pooling2d_10[0][0]']

 batch_normalization_245 (Batch  (None, 6, 6, 22)    88          ['conv2d_245[0][0]']
 Normalization)

 batch_normalization_247 (Batch  (None, 6, 6, 22)    88          ['conv2d_247[0][0]']
 Normalization)

 batch_normalization_250 (Batch  (None, 6, 6, 22)    88          ['conv2d_250[0][0]']
 Normalization)

 batch_normalization_251 (Batch  (None, 6, 6, 22)    88          ['conv2d_251[0][0]']
 Normalization)

 re_lu_42 (ReLU)                (None, 6, 6, 22)     0           ['batch_normalization_245[0][0]']

 re_lu_44 (ReLU)                (None, 6, 6, 22)     0           ['batch_normalization_247[0][0]']

 re_lu_47 (ReLU)                (None, 6, 6, 22)     0           ['batch_normalization_250[0][0]']

 re_lu_48 (ReLU)                (None, 6, 6, 22)     0           ['batch_normalization_251[0][0]']

 concatenate_6 (Concatenate)    (None, 6, 6, 88)     0           ['re_lu_42[0][0]',
                                                                  're_lu_44[0][0]',
                                                                  're_lu_47[0][0]',
                                                                  're_lu_48[0][0]']

 global_average_pooling2d (Glob  (None, 88)          0           ['concatenate_6[0][0]']
 alAveragePooling2D)

 dense (Dense)                  (None, 82)           7298        ['global_average_pooling2d[0][0]'
                                                                 ]

 dropout (Dropout)              (None, 82)           0           ['dense[0][0]']

 dense_1 (Dense)                (None, 1)            83          ['dropout[0][0]']

==================================================================================================
Total params: 54,487,161
Trainable params: 150,117
Non-trainable params: 54,337,044
__________________________________________________________________________________________________
Number of batches in validation dataset: 8
Validation batch shape: (16, 256, 256, 3), Label shape: (16,)
…
