…
WARNING:tensorflow:`input_shape` is undefined or non-square, or `rows` is not in [128, 160, 192, 224]. Weights for input shape (224, 224) will be loaded as the default.
W1128 19:26:34.062403 41060 mobilenet.py:241] `input_shape` is undefined or non-square, or `rows` is not in [128, 160, 192, 224]. Weights for input shape (224, 224) will be loaded as the default.
Model: "mobile_like"
_________________________________________________________________
 Layer (type)                Output Shape              Param #
=================================================================
 input_2 (InputLayer)        [(None, 256, 256, 3)]     0

 mobilenet_1.00_224 (Functio  (None, 8, 8, 1024)       3228864
 nal)

 depthwise_conv2d (Depthwise  (None, 8, 8, 1024)       9216
 Conv2D)

 batch_normalization (BatchN  (None, 8, 8, 1024)       4096
 ormalization)

 re_lu (ReLU)                (None, 8, 8, 1024)        0

 conv2d (Conv2D)             (None, 8, 8, 4)           4096

 batch_normalization_1 (Batc  (None, 8, 8, 4)          16
 hNormalization)

 re_lu_1 (ReLU)              (None, 8, 8, 4)           0

 global_average_pooling2d (G  (None, 4)                0
 lobalAveragePooling2D)

 dense (Dense)               (None, 64)                320

 dropout (Dropout)           (None, 64)                0

 dense_1 (Dense)             (None, 1)                 65

=================================================================
Total params: 3,246,673
Trainable params: 15,753
Non-trainable params: 3,230,920
_________________________________________________________________
Restoring from checkpoint: F:\dl lab\dl-lab-24w-team04-feature\experiments\vgg-1\ckpts\ckpt-1
WARNING:tensorflow:Inconsistent references when loading the checkpoint into this object gra
…
