…
W1129 18:45:55.738136   392 functional.py:752] Model was constructed with shape (None, 224, 224, 3) for input KerasTensor(type_spec=TensorSpec(shape=(None, 224, 224, 3), dtype=tf.float32, name='input_1'), name='input_1', description="created by layer 'input_1'"), but it was called on an input with incompatible shape (None, 256, 256, 3).
(None, 256, 256, 3)
(None, 8, 8, 512)
----------------------------------------------------------------------------------------
Starting training mobilenet_like
Model: "mobilenet_like"
_________________________________________________________________
 Layer (type)                Output Shape              Param #
=================================================================
 input_2 (InputLayer)        [(None, 256, 256, 3)]     0

 mobilenet_1.00_224 (Functio  (None, 7, 7, 1024)       3228864
 nal)

 depthwise_conv2d (Depthwise  (None, 8, 8, 1024)       9216
 Conv2D)

 batch_normalization (BatchN  (None, 8, 8, 1024)       4096
 ormalization)

 re_lu (ReLU)                (None, 8, 8, 1024)        0

 conv2d (Conv2D)             (None, 8, 8, 5)           5120

 batch_normalization_1 (Batc  (None, 8, 8, 5)          20
 hNormalization)

 re_lu_1 (ReLU)              (None, 8, 8, 5)           0

 global_average_pooling2d (G  (None, 5)                0
 lobalAveragePooling2D)

 dense (Dense)               (None, 128)               768

 dropout (Dropout)           (None, 128)               0

 dense_1 (Dense)             (None, 1)                 129

=================================================================
Total params: 3,248,213
Trainable params: 17,291
Non-trainable params: 3,230,922
_________________________________________________________________
Number of batches in validation dataset: 8
Validation batch shape: (16, 256, 256, 3), Label shape: (16,)
input_2 True
mobilenet_1.00_224 False
depthwise_conv2d True
batch_normalization True
…
