…
WARNING:tensorflow:Using a while_loop for converting AdjustContrastv2 cause Input "contrast_factor" of op 'AdjustContrastv2' expected to be loop invariant.
----------------------------------------------------------------------------------------
Starting training inception_v2_like
Model: "inception_v2_like"
__________________________________________________________________________________________________
 Layer (type)                   Output Shape         Param #     Connected to
==================================================================================================
 input_2 (InputLayer)           [(None, 256, 256, 3  0           []
                                )]

 inception_resnet_v2 (Functiona  (None, 6, 6, 1536)  54336736    ['input_2[0][0]']
 l)

 conv2d_227 (Conv2D)            (None, 6, 6, 42)     64512       ['inception_resnet_v2[0][0]']

 batch_normalization_227 (Batch  (None, 6, 6, 42)    168         ['conv2d_227[0][0]']
 Normalization)

 re_lu_24 (ReLU)                (None, 6, 6, 42)     0           ['batch_normalization_227[0][0]']

 conv2d_225 (Conv2D)            (None, 6, 6, 42)     64512       ['inception_resnet_v2[0][0]']

 conv2d_228 (Conv2D)            (None, 6, 6, 42)     5292        ['re_lu_24[0][0]']

 batch_normalization_225 (Batch  (None, 6, 6, 42)    168         ['conv2d_225[0][0]']
 Normalization)

 batch_normalization_228 (Batch  (None, 6, 6, 42)    168         ['conv2d_228[0][0]']
 Normalization)

 re_lu_22 (ReLU)                (None, 6, 6, 42)     0           ['batch_normalization_225[0][0]']

 re_lu_25 (ReLU)                (None, 6, 6, 42)     0           ['batch_normalization_228[0][0]']

 max_pooling2d_7 (MaxPooling2D)  (None, 6, 6, 1536)  0           ['inception_resnet_v2[0][0]']

 conv2d_224 (Conv2D)            (None, 6, 6, 42)     64512       ['inception_resnet_v2[0][0]']

 conv2d_226 (Conv2D)            (None, 6, 6, 42)     15876       ['re_lu_22[0][0]']

 conv2d_229 (Conv2D)            (None, 6, 6, 42)     5292        ['re_lu_25[0][0]']

 conv2d_230 (Conv2D)            (None, 6, 6, 42)     64512       ['max_pooling2d_7[0][0]']

 batch_normalization_224 (Batch  (None, 6, 6, 42)    168         ['conv2d_224[0][0]']
 Normalization)

 batch_normalization_226 (Batch  (None, 6, 6, 42)    168         ['conv2d_226[0][0]']
 Normalization)

 batch_normalization_229 (Batch  (None, 6, 6, 42)    168         ['conv2d_229[0][0]']
 Normalization)

 batch_normalization_230 (Batch  (None, 6, 6, 42)    168         ['conv2d_230[0][0]']
 Normalization)

 re_lu_21 (ReLU)                (None, 6, 6, 42)     0           ['batch_normalization_224[0][0]']

 re_lu_23 (ReLU)                (None, 6, 6, 42)     0           ['batch_normalization_226[0][0]']

 re_lu_26 (ReLU)                (None, 6, 6, 42)     0           ['batch_normalization_229[0][0]']

 re_lu_27 (ReLU)                (None, 6, 6, 42)     0           ['batch_normalization_230[0][0]']

 concatenate_3 (Concatenate)    (None, 6, 6, 168)    0           ['re_lu_21[0][0]',
                                                                  're_lu_23[0][0]',
                                                                  're_lu_26[0][0]',
                                                                  're_lu_27[0][0]']

 global_average_pooling2d (Glob  (None, 168)         0           ['concatenate_3[0][0]']
 alAveragePooling2D)

 dense (Dense)                  (None, 39)           6591        ['global_average_pooling2d[0][0]'
                                                                 ]

 dropout (Dropout)              (None, 39)           0           ['dense[0][0]']

 dense_1 (Dense)                (None, 1)            40          ['dropout[0][0]']

==================================================================================================
Total params: 54,629,051
Trainable params: 291,727
Non-trainable params: 54,337,324
__________________________________________________________________________________________________
Number of batches in validation dataset: 8
Validation batch shape: (16, 256, 256, 3), Label shape: (16,)
…
