…
WARNING:tensorflow:`input_shape` is undefined or non-square, or `rows` is not in [128, 160, 192, 224]. Weights for input shape (224, 224) will be loaded as the default.
W1124 10:09:11.687175 21924 mobilenet.py:241] `input_shape` is undefined or non-square, or `rows` is not in [128, 160, 192, 224]. Weights for input shape (224, 224) will be loaded as the default.
Model: "mobile_like"
_________________________________________________________________
 Layer (type)                Output Shape              Param #
=================================================================
 input_2 (InputLayer)        [(None, 256, 256, 3)]     0

 depthwise_conv2d (Depthwise  (None, 256, 256, 3)      27
 Conv2D)

 batch_normalization (BatchN  (None, 256, 256, 3)      12
 ormalization)

 re_lu (ReLU)                (None, 256, 256, 3)       0

 conv2d (Conv2D)             (None, 256, 256, 128)     384

 batch_normalization_1 (Batc  (None, 256, 256, 128)    512
 hNormalization)

 re_lu_1 (ReLU)              (None, 256, 256, 128)     0

 depthwise_conv2d_1 (Depthwi  (None, 256, 256, 128)    1152
 seConv2D)

 batch_normalization_2 (Batc  (None, 256, 256, 128)    512
 hNormalization)

 re_lu_2 (ReLU)              (None, 256, 256, 128)     0

 conv2d_1 (Conv2D)           (None, 256, 256, 128)     16384

 batch_normalization_3 (Batc  (None, 256, 256, 128)    512
 hNormalization)

 re_lu_3 (ReLU)              (None, 256, 256, 128)     0

 depthwise_conv2d_2 (Depthwi  (None, 256, 256, 128)    1152
 seConv2D)

 batch_normalization_4 (Batc  (None, 256, 256, 128)    512
 hNormalization)

 re_lu_4 (ReLU)              (None, 256, 256, 128)     0

 conv2d_2 (Conv2D)           (None, 256, 256, 128)     16384

 batch_normalization_5 (Batc  (None, 256, 256, 128)    512
 hNormalization)

 re_lu_5 (ReLU)              (None, 256, 256, 128)     0

 depthwise_conv2d_3 (Depthwi  (None, 256, 256, 128)    1152
 seConv2D)

 batch_normalization_6 (Batc  (None, 256, 256, 128)    512
 hNormalization)

 re_lu_6 (ReLU)              (None, 256, 256, 128)     0

 conv2d_3 (Conv2D)           (None, 256, 256, 128)     16384

 batch_normalization_7 (Batc  (None, 256, 256, 128)    512
 hNormalization)

 re_lu_7 (ReLU)              (None, 256, 256, 128)     0

 depthwise_conv2d_4 (Depthwi  (None, 256, 256, 128)    1152
 seConv2D)

 batch_normalization_8 (Batc  (None, 256, 256, 128)    512
 hNormalization)

 re_lu_8 (ReLU)              (None, 256, 256, 128)     0

 conv2d_4 (Conv2D)           (None, 256, 256, 128)     16384

 batch_normalization_9 (Batc  (None, 256, 256, 128)    512
 hNormalization)

 re_lu_9 (ReLU)              (None, 256, 256, 128)     0

 global_average_pooling2d (G  (None, 128)              0
 lobalAveragePooling2D)

 dense (Dense)               (None, 32)                4128

 dropout (Dropout)           (None, 32)                0

 dense_1 (Dense)             (None, 1)                 33

=================================================================
Total params: 79,336
Trainable params: 77,026
Non-trainable params: 2,310
_________________________________________________________________
Restoring from checkpoint: F:\dl lab\dl-lab-24w-team04-feature\experiments\run_2024-11-24T09-50-10-824323\ckpts\ckpt-11
Raw predictions for batch 0: [[0.810335]]
Raw predictions for batch 1: [[0.25683582]]
…
