…
WARNING:tensorflow:Using a while_loop for converting AdjustContrastv2 cause Input "contrast_factor" of op 'AdjustContrastv2' expected to be loop invariant.
(None, 256, 256, 3)
(None, 8, 8, 512)
----------------------------------------------------------------------------------------
Starting training vgg_like
Model: "vgg_like"
_________________________________________________________________
 Layer (type)                Output Shape              Param #
=================================================================
 input_2 (InputLayer)        [(None, 256, 256, 3)]     0

 vgg16 (Functional)          (None, 8, 8, 512)         14714688

 conv2d_12 (Conv2D)          (None, 8, 8, 33)          152097

 max_pooling2d_12 (MaxPoolin  (None, 4, 4, 33)         0
 g2D)

 conv2d_13 (Conv2D)          (None, 4, 4, 33)          9834

 max_pooling2d_13 (MaxPoolin  (None, 2, 2, 33)         0
 g2D)

 global_average_pooling2d (G  (None, 33)               0
 lobalAveragePooling2D)

 dense (Dense)               (None, 19)                646

 leaky_re_lu (LeakyReLU)     (None, 19)                0

 dropout (Dropout)           (None, 19)                0

 dense_1 (Dense)             (None, 1)                 20

=================================================================
Total params: 14,877,285
Trainable params: 162,597
Non-trainable params: 14,714,688
_________________________________________________________________
Number of batches in validation dataset: 8
Validation batch shape: (16, 256, 256, 3), Label shape: (16,)
input_2 True
vgg16 False
conv2d_12 True
max_pooling2d_12 True
conv2d_13 True
max_pooling2d_13 True
…
