…
WARNING:tensorflow:Using a while_loop for converting AdjustContrastv2 cause Input "contrast_factor" of op 'AdjustContrastv2' expected to be loop invariant.
----------------------------------------------------------------------------------------
Starting training inception_v2_like
Model: "inception_v2_like"
__________________________________________________________________________________________________
 Layer (type)                   Output Shape         Param #     Connected to
==================================================================================================
 input_2 (InputLayer)           [(None, 256, 256, 3  0           []
                                )]

 inception_resnet_v2 (Functiona  (None, 6, 6, 1536)  54336736    ['input_2[0][0]']
 l)

 conv2d_213 (Conv2D)            (None, 6, 6, 5)      7680        ['inception_resnet_v2[0][0]']

 batch_normalization_213 (Batch  (None, 6, 6, 5)     20          ['conv2d_213[0][0]']
 Normalization)

 re_lu_10 (ReLU)                (None, 6, 6, 5)      0           ['batch_normalization_213[0][0]']

 conv2d_211 (Conv2D)            (None, 6, 6, 5)      7680        ['inception_resnet_v2[0][0]']

 conv2d_214 (Conv2D)            (None, 6, 6, 5)      75          ['re_lu_10[0][0]']

 batch_normalization_211 (Batch  (None, 6, 6, 5)     20          ['conv2d_211[0][0]']
 Normalization)

 batch_normalization_214 (Batch  (None, 6, 6, 5)     20          ['conv2d_214[0][0]']
 Normalization)

 re_lu_8 (ReLU)                 (None, 6, 6, 5)      0           ['batch_normalization_211[0][0]']

 re_lu_11 (ReLU)                (None, 6, 6, 5)      0           ['batch_normalization_214[0][0]']

 max_pooling2d_5 (MaxPooling2D)  (None, 6, 6, 1536)  0           ['inception_resnet_v2[0][0]']

 conv2d_210 (Conv2D)            (None, 6, 6, 5)      7680        ['inception_resnet_v2[0][0]']

 conv2d_212 (Conv2D)            (None, 6, 6, 5)      225         ['re_lu_8[0][0]']

 conv2d_215 (Conv2D)            (None, 6, 6, 5)      75          ['re_lu_11[0][0]']

 conv2d_216 (Conv2D)            (None, 6, 6, 5)      7680        ['max_pooling2d_5[0][0]']

 batch_normalization_210 (Batch  (None, 6, 6, 5)     20          ['conv2d_210[0][0]']
 Normalization)

 batch_normalization_212 (Batch  (None, 6, 6, 5)     20          ['conv2d_212[0][0]']
 Normalization)

 batch_normalization_215 (Batch  (None, 6, 6, 5)     20          ['conv2d_215[0][0]']
 Normalization)

 batch_normalization_216 (Batch  (None, 6, 6, 5)     20          ['conv2d_216[0][0]']
 Normalization)

 re_lu_7 (ReLU)                 (None, 6, 6, 5)      0           ['batch_normalization_210[0][0]']

 re_lu_9 (ReLU)                 (None, 6, 6, 5)      0           ['batch_normalization_212[0][0]']

 re_lu_12 (ReLU)                (None, 6, 6, 5)      0           ['batch_normalization_215[0][0]']

 re_lu_13 (ReLU)                (None, 6, 6, 5)      0           ['batch_normalization_216[0][0]']

 concatenate_1 (Concatenate)    (None, 6, 6, 20)     0           ['re_lu_7[0][0]',
                                                                  're_lu_9[0][0]',
                                                                  're_lu_12[0][0]',
                                                                  're_lu_13[0][0]']

 global_average_pooling2d (Glob  (None, 20)          0           ['concatenate_1[0][0]']
 alAveragePooling2D)

 dense (Dense)                  (None, 256)          5376        ['global_average_pooling2d[0][0]'
                                                                 ]

 dropout (Dropout)              (None, 256)          0           ['dense[0][0]']

 dense_1 (Dense)                (None, 1)            257         ['dropout[0][0]']

==================================================================================================
Total params: 54,373,604
Trainable params: 36,798
Non-trainable params: 54,336,806
__________________________________________________________________________________________________
Number of batches in validation dataset: 8
Validation batch shape: (16, 256, 256, 3), Label shape: (16,)
…
