…
WARNING:tensorflow:Using a while_loop for converting AdjustContrastv2 cause Input "contrast_factor" of op 'AdjustContrastv2' expected to be loop invariant.
----------------------------------------------------------------------------------------
Starting training inception_v2_like
Model: "inception_v2_like"
__________________________________________________________________________________________________
 Layer (type)                   Output Shape         Param #     Connected to
==================================================================================================
 input_2 (InputLayer)           [(None, 256, 256, 3  0           []
                                )]

 inception_resnet_v2 (Functiona  (None, 6, 6, 1536)  54336736    ['input_2[0][0]']
 l)

 conv2d_234 (Conv2D)            (None, 6, 6, 53)     81408       ['inception_resnet_v2[0][0]']

 batch_normalization_234 (Batch  (None, 6, 6, 53)    212         ['conv2d_234[0][0]']
 Normalization)

 re_lu_31 (ReLU)                (None, 6, 6, 53)     0           ['batch_normalization_234[0][0]']

 conv2d_232 (Conv2D)            (None, 6, 6, 53)     81408       ['inception_resnet_v2[0][0]']

 conv2d_235 (Conv2D)            (None, 6, 6, 53)     8427        ['re_lu_31[0][0]']

 batch_normalization_232 (Batch  (None, 6, 6, 53)    212         ['conv2d_232[0][0]']
 Normalization)

 batch_normalization_235 (Batch  (None, 6, 6, 53)    212         ['conv2d_235[0][0]']
 Normalization)

 re_lu_29 (ReLU)                (None, 6, 6, 53)     0           ['batch_normalization_232[0][0]']

 re_lu_32 (ReLU)                (None, 6, 6, 53)     0           ['batch_normalization_235[0][0]']

 max_pooling2d_8 (MaxPooling2D)  (None, 6, 6, 1536)  0           ['inception_resnet_v2[0][0]']

 conv2d_231 (Conv2D)            (None, 6, 6, 53)     81408       ['inception_resnet_v2[0][0]']

 conv2d_233 (Conv2D)            (None, 6, 6, 53)     25281       ['re_lu_29[0][0]']

 conv2d_236 (Conv2D)            (None, 6, 6, 53)     8427        ['re_lu_32[0][0]']

 conv2d_237 (Conv2D)            (None, 6, 6, 53)     81408       ['max_pooling2d_8[0][0]']

 batch_normalization_231 (Batch  (None, 6, 6, 53)    212         ['conv2d_231[0][0]']
 Normalization)

 batch_normalization_233 (Batch  (None, 6, 6, 53)    212         ['conv2d_233[0][0]']
 Normalization)

 batch_normalization_236 (Batch  (None, 6, 6, 53)    212         ['conv2d_236[0][0]']
 Normalization)

 batch_normalization_237 (Batch  (None, 6, 6, 53)    212         ['conv2d_237[0][0]']
 Normalization)

 re_lu_28 (ReLU)                (None, 6, 6, 53)     0           ['batch_normalization_231[0][0]']

 re_lu_30 (ReLU)                (None, 6, 6, 53)     0           ['batch_normalization_233[0][0]']

 re_lu_33 (ReLU)                (None, 6, 6, 53)     0           ['batch_normalization_236[0][0]']

 re_lu_34 (ReLU)                (None, 6, 6, 53)     0           ['batch_normalization_237[0][0]']

 concatenate_4 (Concatenate)    (None, 6, 6, 212)    0           ['re_lu_28[0][0]',
                                                                  're_lu_30[0][0]',
                                                                  're_lu_33[0][0]',
                                                                  're_lu_34[0][0]']

 global_average_pooling2d (Glob  (None, 212)         0           ['concatenate_4[0][0]']
 alAveragePooling2D)

 dense (Dense)                  (None, 69)           14697       ['global_average_pooling2d[0][0]'
                                                                 ]

 dropout (Dropout)              (None, 69)           0           ['dense[0][0]']

 dense_1 (Dense)                (None, 1)            70          ['dropout[0][0]']

==================================================================================================
Total params: 54,720,754
Trainable params: 383,276
Non-trainable params: 54,337,478
__________________________________________________________________________________________________
Number of batches in validation dataset: 8
Validation batch shape: (16, 256, 256, 3), Label shape: (16,)
…
