…
WARNING:tensorflow:Using a while_loop for converting AdjustContrastv2 cause Input "contrast_factor" of op 'AdjustContrastv2' expected to be loop invariant.
(None, 256, 256, 3)
(None, 8, 8, 512)
----------------------------------------------------------------------------------------
Starting training vgg_like
Model: "vgg_like"
_________________________________________________________________
 Layer (type)                Output Shape              Param #
=================================================================
 input_2 (InputLayer)        [(None, 256, 256, 3)]     0

 vgg16 (Functional)          (None, 8, 8, 512)         14714688

 conv2d_2 (Conv2D)           (None, 8, 8, 11)          50699

 max_pooling2d_2 (MaxPooling  (None, 4, 4, 11)         0
 2D)

 conv2d_3 (Conv2D)           (None, 4, 4, 11)          1100

 max_pooling2d_3 (MaxPooling  (None, 2, 2, 11)         0
 2D)

 global_average_pooling2d (G  (None, 11)               0
 lobalAveragePooling2D)

 dense (Dense)               (None, 241)               2892

 leaky_re_lu (LeakyReLU)     (None, 241)               0

 dropout (Dropout)           (None, 241)               0

 dense_1 (Dense)             (None, 1)                 242

=================================================================
Total params: 14,769,621
Trainable params: 54,933
Non-trainable params: 14,714,688
_________________________________________________________________
Number of batches in validation dataset: 8
Validation batch shape: (16, 256, 256, 3), Label shape: (16,)
input_2 True
vgg16 False
conv2d_2 True
max_pooling2d_2 True
conv2d_3 True
max_pooling2d_3 True
…
