…
W1203 20:52:21.862678 19424 mobilenet.py:241] `input_shape` is undefined or non-square, or `rows` is not in [128, 160, 192, 224]. Weights for input shape (224, 224) will be loaded as the default.
(None, 256, 256, 3)
(None, 8, 8, 512)
----------------------------------------------------------------------------------------
Starting training mobilenet_like
Model: "mobilenet_like"
_________________________________________________________________
 Layer (type)                Output Shape              Param #
=================================================================
 input_2 (InputLayer)        [(None, 256, 256, 3)]     0

 mobilenet_1.00_224 (Functio  (None, 8, 8, 1024)       3228864
 nal)

 depthwise_conv2d_6 (Depthwi  (None, 8, 8, 1024)       9216
 seConv2D)

 batch_normalization_12 (Bat  (None, 8, 8, 1024)       4096
 chNormalization)

 re_lu_12 (ReLU)             (None, 8, 8, 1024)        0

 conv2d_6 (Conv2D)           (None, 8, 8, 63)          64512

 batch_normalization_13 (Bat  (None, 8, 8, 63)         252
 chNormalization)

 re_lu_13 (ReLU)             (None, 8, 8, 63)          0

 global_average_pooling2d (G  (None, 63)               0
 lobalAveragePooling2D)

 dense (Dense)               (None, 150)               9600

 dropout (Dropout)           (None, 150)               0

 dense_1 (Dense)             (None, 1)                 151

=================================================================
Total params: 3,316,691
Trainable params: 85,653
Non-trainable params: 3,231,038
_________________________________________________________________
Number of batches in validation dataset: 8
Validation batch shape: (16, 256, 256, 3), Label shape: (16,)
input_2 True
mobilenet_1.00_224 False
depthwise_conv2d_6 True
batch_normalization_12 True
…
Training checkpoint path for mobilenet_like: F:\DL_lab\experiments\run_2024-12-03T20-52-19-072336_mobilenet_like\ckpts
Training completed for mobilenet_like
----------------------------------------------------------------------------------------
----------------------------------------------------------------------------------------
Starting training vgg_like
Model: "vgg_like"
_________________________________________________________________
 Layer (type)                Output Shape              Param #
=================================================================
 input_4 (InputLayer)        [(None, 256, 256, 3)]     0

 vgg16 (Functional)          (None, 8, 8, 512)         14714688

 conv2d_11 (Conv2D)          (None, 8, 8, 83)          382547

 max_pooling2d_4 (MaxPooling  (None, 4, 4, 83)         0
 2D)

 conv2d_12 (Conv2D)          (None, 4, 4, 83)          62084

 max_pooling2d_5 (MaxPooling  (None, 2, 2, 83)         0
 2D)

 global_average_pooling2d_1   (None, 83)               0
 (GlobalAveragePooling2D)

 dense_2 (Dense)             (None, 113)               9492

 leaky_re_lu (LeakyReLU)     (None, 113)               0

 dropout_1 (Dropout)         (None, 113)               0

 dense_3 (Dense)             (None, 1)                 114

=================================================================
Total params: 15,168,925
Trainable params: 454,237
Non-trainable params: 14,714,688
_________________________________________________________________
Number of batches in validation dataset: 8
Validation batch shape: (16, 256, 256, 3), Label shape: (16,)
input_4 True
vgg16 False
conv2d_11 True
max_pooling2d_4 True
conv2d_12 True
max_pooling2d_5 True
…
----------------------------------------------------------------------------------------
----------------------------------------------------------------------------------------
Starting training inception_v2_like
Model: "inception_v2_like"
__________________________________________________________________________________________________
 Layer (type)                   Output Shape         Param #     Connected to
==================================================================================================
 input_6 (InputLayer)           [(None, 256, 256, 3  0           []
                                )]

 inception_resnet_v2 (Functiona  (None, 6, 6, 1536)  54336736    ['input_6[0][0]']
 l)

 conv2d_233 (Conv2D)            (None, 6, 6, 52)     79872       ['inception_resnet_v2[0][0]']

 batch_normalization_234 (Batch  (None, 6, 6, 52)    208         ['conv2d_233[0][0]']
 Normalization)

 re_lu_31 (ReLU)                (None, 6, 6, 52)     0           ['batch_normalization_234[0][0]']

 conv2d_231 (Conv2D)            (None, 6, 6, 52)     79872       ['inception_resnet_v2[0][0]']

 conv2d_234 (Conv2D)            (None, 6, 6, 52)     8112        ['re_lu_31[0][0]']

 batch_normalization_232 (Batch  (None, 6, 6, 52)    208         ['conv2d_231[0][0]']
 Normalization)

 batch_normalization_235 (Batch  (None, 6, 6, 52)    208         ['conv2d_234[0][0]']
 Normalization)

 re_lu_29 (ReLU)                (None, 6, 6, 52)     0           ['batch_normalization_232[0][0]']

 re_lu_32 (ReLU)                (None, 6, 6, 52)     0           ['batch_normalization_235[0][0]']

 max_pooling2d_12 (MaxPooling2D  (None, 6, 6, 1536)  0           ['inception_resnet_v2[0][0]']
 )

 conv2d_230 (Conv2D)            (None, 6, 6, 52)     79872       ['inception_resnet_v2[0][0]']

 conv2d_232 (Conv2D)            (None, 6, 6, 52)     24336       ['re_lu_29[0][0]']

 conv2d_235 (Conv2D)            (None, 6, 6, 52)     8112        ['re_lu_32[0][0]']

 conv2d_236 (Conv2D)            (None, 6, 6, 52)     79872       ['max_pooling2d_12[0][0]']

 batch_normalization_231 (Batch  (None, 6, 6, 52)    208         ['conv2d_230[0][0]']
 Normalization)

 batch_normalization_233 (Batch  (None, 6, 6, 52)    208         ['conv2d_232[0][0]']
 Normalization)

 batch_normalization_236 (Batch  (None, 6, 6, 52)    208         ['conv2d_235[0][0]']
 Normalization)

 batch_normalization_237 (Batch  (None, 6, 6, 52)    208         ['conv2d_236[0][0]']
 Normalization)

 re_lu_28 (ReLU)                (None, 6, 6, 52)     0           ['batch_normalization_231[0][0]']

 re_lu_30 (ReLU)                (None, 6, 6, 52)     0           ['batch_normalization_233[0][0]']

 re_lu_33 (ReLU)                (None, 6, 6, 52)     0           ['batch_normalization_236[0][0]']

 re_lu_34 (ReLU)                (None, 6, 6, 52)     0           ['batch_normalization_237[0][0]']

 concatenate_2 (Concatenate)    (None, 6, 6, 208)    0           ['re_lu_28[0][0]',
                                                                  're_lu_30[0][0]',
                                                                  're_lu_33[0][0]',
                                                                  're_lu_34[0][0]']

 global_average_pooling2d_2 (Gl  (None, 208)         0           ['concatenate_2[0][0]']
 obalAveragePooling2D)

 dense_4 (Dense)                (None, 231)          48279       ['global_average_pooling2d_2[0][0
                                                                 ]']

 dropout_2 (Dropout)            (None, 231)          0           ['dense_4[0][0]']

 dense_5 (Dense)                (None, 1)            232         ['dropout_2[0][0]']

==================================================================================================
Total params: 54,746,751
Trainable params: 409,287
Non-trainable params: 54,337,464
__________________________________________________________________________________________________
Number of batches in validation dataset: 8
Validation batch shape: (16, 256, 256, 3), Label shape: (16,)
…
