…
WARNING:tensorflow:`input_shape` is undefined or non-square, or `rows` is not in [128, 160, 192, 224]. Weights for input shape (224, 224) will be loaded as the default.
W1127 20:11:30.641994 14420 mobilenet.py:241] `input_shape` is undefined or non-square, or `rows` is not in [128, 160, 192, 224]. Weights for input shape (224, 224) will be loaded as the default.
Model: "mobile_like"
_________________________________________________________________
 Layer (type)                Output Shape              Param #
=================================================================
 input_2 (InputLayer)        [(None, 256, 256, 3)]     0

 mobilenet_1.00_224 (Functio  (None, 8, 8, 1024)       3228864
 nal)

 depthwise_conv2d (Depthwise  (None, 8, 8, 1024)       9216
 Conv2D)

 batch_normalization (BatchN  (None, 8, 8, 1024)       4096
 ormalization)

 re_lu (ReLU)                (None, 8, 8, 1024)        0

 conv2d (Conv2D)             (None, 8, 8, 8)           8192

 batch_normalization_1 (Batc  (None, 8, 8, 8)          32
 hNormalization)

 re_lu_1 (ReLU)              (None, 8, 8, 8)           0

 global_average_pooling2d (G  (None, 8)                0
 lobalAveragePooling2D)

 dense (Dense)               (None, 16)                144

 dropout (Dropout)           (None, 16)                0

 dense_1 (Dense)             (None, 1)                 17

=================================================================
Total params: 3,250,561
Trainable params: 19,633
Non-trainable params: 3,230,928
_________________________________________________________________
Restoring from checkpoint: F:\dl lab\dl-lab-24w-team04-feature\experiments\run_2024-11-27T20-10-18-325818\ckpts\ckpt-1
Raw predictions for batch 0: [[0.34806833]]
Raw predictions for batch 1: [[0.8425597]]
…
