…
WARNING:tensorflow:Using a while_loop for converting AdjustContrastv2 cause Input "contrast_factor" of op 'AdjustContrastv2' expected to be loop invariant.
WARNING:tensorflow:`input_shape` is undefined or non-square, or `rows` is not in [128, 160, 192, 224]. Weights for input shape (224, 224) will be loaded as the default.
----------------------------------------------------------------------------------------
Starting training mobilenet_like
Model: "mobilenet_like"
_________________________________________________________________
 Layer (type)                Output Shape              Param #
=================================================================
 input_2 (InputLayer)        [(None, 256, 256, 3)]     0

 mobilenet_1.00_224 (Functio  (None, 8, 8, 1024)       3228864
 nal)

 depthwise_conv2d_1 (Depthwi  (None, 8, 8, 1024)       9216
 seConv2D)

 batch_normalization_2 (Batc  (None, 8, 8, 1024)       4096
 hNormalization)

 re_lu_2 (ReLU)              (None, 8, 8, 1024)        0

 conv2d_1 (Conv2D)           (None, 8, 8, 103)         105472

 batch_normalization_3 (Batc  (None, 8, 8, 103)        412
 hNormalization)

 re_lu_3 (ReLU)              (None, 8, 8, 103)         0

 global_average_pooling2d (G  (None, 103)              0
 lobalAveragePooling2D)

 dense (Dense)               (None, 62)                6448

 dropout (Dropout)           (None, 62)                0

 dense_1 (Dense)             (None, 1)                 63

=================================================================
Total params: 3,354,571
Trainable params: 123,453
Non-trainable params: 3,231,118
_________________________________________________________________
Number of batches in validation dataset: 8
Validation batch shape: (16, 256, 256, 3), Label shape: (16,)
input_2 True
mobilenet_1.00_224 False
depthwise_conv2d_1 True
batch_normalization_2 True
…
