…
WARNING:tensorflow:Using a while_loop for converting AdjustContrastv2 cause Input "contrast_factor" of op 'AdjustContrastv2' expected to be loop invariant.
----------------------------------------------------------------------------------------
Starting training inception_v2_like
Model: "inception_v2_like"
__________________________________________________________________________________________________
 Layer (type)                   Output Shape         Param #     Connected to
==================================================================================================
 input_2 (InputLayer)           [(None, 256, 256, 3  0           []
                                )]

 inception_resnet_v2 (Functiona  (None, 6, 6, 1536)  54336736    ['input_2[0][0]']
 l)

 conv2d_220 (Conv2D)            (None, 6, 6, 24)     36864       ['inception_resnet_v2[0][0]']

 batch_normalization_220 (Batch  (None, 6, 6, 24)    96          ['conv2d_220[0][0]']
 Normalization)

 re_lu_17 (ReLU)                (None, 6, 6, 24)     0           ['batch_normalization_220[0][0]']

 conv2d_218 (Conv2D)            (None, 6, 6, 24)     36864       ['inception_resnet_v2[0][0]']

 conv2d_221 (Conv2D)            (None, 6, 6, 24)     1728        ['re_lu_17[0][0]']

 batch_normalization_218 (Batch  (None, 6, 6, 24)    96          ['conv2d_218[0][0]']
 Normalization)

 batch_normalization_221 (Batch  (None, 6, 6, 24)    96          ['conv2d_221[0][0]']
 Normalization)

 re_lu_15 (ReLU)                (None, 6, 6, 24)     0           ['batch_normalization_218[0][0]']

 re_lu_18 (ReLU)                (None, 6, 6, 24)     0           ['batch_normalization_221[0][0]']

 max_pooling2d_6 (MaxPooling2D)  (None, 6, 6, 1536)  0           ['inception_resnet_v2[0][0]']

 conv2d_217 (Conv2D)            (None, 6, 6, 24)     36864       ['inception_resnet_v2[0][0]']

 conv2d_219 (Conv2D)            (None, 6, 6, 24)     5184        ['re_lu_15[0][0]']

 conv2d_222 (Conv2D)            (None, 6, 6, 24)     1728        ['re_lu_18[0][0]']

 conv2d_223 (Conv2D)            (None, 6, 6, 24)     36864       ['max_pooling2d_6[0][0]']

 batch_normalization_217 (Batch  (None, 6, 6, 24)    96          ['conv2d_217[0][0]']
 Normalization)

 batch_normalization_219 (Batch  (None, 6, 6, 24)    96          ['conv2d_219[0][0]']
 Normalization)

 batch_normalization_222 (Batch  (None, 6, 6, 24)    96          ['conv2d_222[0][0]']
 Normalization)

 batch_normalization_223 (Batch  (None, 6, 6, 24)    96          ['conv2d_223[0][0]']
 Normalization)

 re_lu_14 (ReLU)                (None, 6, 6, 24)     0           ['batch_normalization_217[0][0]']

 re_lu_16 (ReLU)                (None, 6, 6, 24)     0           ['batch_normalization_219[0][0]']

 re_lu_19 (ReLU)                (None, 6, 6, 24)     0           ['batch_normalization_222[0][0]']

 re_lu_20 (ReLU)                (None, 6, 6, 24)     0           ['batch_normalization_223[0][0]']

 concatenate_2 (Concatenate)    (None, 6, 6, 96)     0           ['re_lu_14[0][0]',
                                                                  're_lu_16[0][0]',
                                                                  're_lu_19[0][0]',
                                                                  're_lu_20[0][0]']

 global_average_pooling2d (Glob  (None, 96)          0           ['concatenate_2[0][0]']
 alAveragePooling2D)

 dense (Dense)                  (None, 39)           3783        ['global_average_pooling2d[0][0]'
                                                                 ]

 dropout (Dropout)              (None, 39)           0           ['dense[0][0]']

 dense_1 (Dense)                (None, 1)            40          ['dropout[0][0]']

==================================================================================================
Total params: 54,497,327
Trainable params: 160,255
Non-trainable params: 54,337,072
__________________________________________________________________________________________________
Number of batches in validation dataset: 8
Validation batch shape: (16, 256, 256, 3), Label shape: (16,)
…
