…
W1201 09:13:23.465343 31736 mobilenet.py:241] `input_shape` is undefined or non-square, or `rows` is not in [128, 160, 192, 224]. Weights for input shape (224, 224) will be loaded as the default.
(None, 256, 256, 3)
(None, 8, 8, 512)
----------------------------------------------------------------------------------------
Starting training mobilenet_like
Model: "mobilenet_like"
_________________________________________________________________
 Layer (type)                Output Shape              Param #
=================================================================
 input_2 (InputLayer)        [(None, 256, 256, 3)]     0

 mobilenet_1.00_224 (Functio  (None, 8, 8, 1024)       3228864
 nal)

 depthwise_conv2d_4 (Depthwi  (None, 8, 8, 1024)       9216
 seConv2D)

 batch_normalization_8 (Batc  (None, 8, 8, 1024)       4096
 hNormalization)

 re_lu_8 (ReLU)              (None, 8, 8, 1024)        0

 conv2d_4 (Conv2D)           (None, 8, 8, 81)          82944

 batch_normalization_9 (Batc  (None, 8, 8, 81)         324
 hNormalization)

 re_lu_9 (ReLU)              (None, 8, 8, 81)          0

 global_average_pooling2d (G  (None, 81)               0
 lobalAveragePooling2D)

 dense (Dense)               (None, 65)                5330

 dropout (Dropout)           (None, 65)                0

 dense_1 (Dense)             (None, 1)                 66

=================================================================
Total params: 3,330,840
Trainable params: 99,766
Non-trainable params: 3,231,074
_________________________________________________________________
Number of batches in validation dataset: 8
Validation batch shape: (16, 256, 256, 3), Label shape: (16,)
input_2 True
mobilenet_1.00_224 False
depthwise_conv2d_4 True
batch_normalization_8 True
…
Training checkpoint path for mobilenet_like: F:\dl lab\dl-lab-24w-team04-feature\experiments\run_2024-12-01T09-13-20-797971_mobilenet_like\ckpts
Training completed for mobilenet_like
----------------------------------------------------------------------------------------
----------------------------------------------------------------------------------------
Starting training vgg_like
Model: "vgg_like"
_________________________________________________________________
 Layer (type)                Output Shape              Param #
=================================================================
 input_4 (InputLayer)        [(None, 256, 256, 3)]     0

 vgg16 (Functional)          (None, 8, 8, 512)         14714688

 conv2d_7 (Conv2D)           (None, 8, 8, 25)          115225

 max_pooling2d_2 (MaxPooling  (None, 4, 4, 25)         0
 2D)

 conv2d_8 (Conv2D)           (None, 4, 4, 25)          5650

 max_pooling2d_3 (MaxPooling  (None, 2, 2, 25)         0
 2D)

 global_average_pooling2d_1   (None, 25)               0
 (GlobalAveragePooling2D)

 dense_2 (Dense)             (None, 19)                494

 leaky_re_lu (LeakyReLU)     (None, 19)                0

 dropout_1 (Dropout)         (None, 19)                0

 dense_3 (Dense)             (None, 1)                 20

=================================================================
Total params: 14,836,077
Trainable params: 121,389
Non-trainable params: 14,714,688
_________________________________________________________________
Number of batches in validation dataset: 8
Validation batch shape: (16, 256, 256, 3), Label shape: (16,)
input_4 True
vgg16 False
conv2d_7 True
max_pooling2d_2 True
conv2d_8 True
max_pooling2d_3 True
…
----------------------------------------------------------------------------------------
----------------------------------------------------------------------------------------
Starting training inception_v2_like
Model: "inception_v2_like"
__________________________________________________________________________________________________
 Layer (type)                   Output Shape         Param #     Connected to
==================================================================================================
 input_6 (InputLayer)           [(None, 256, 256, 3  0           []
                                )]

 inception_resnet_v2 (Functiona  (None, 6, 6, 1536)  54336736    ['input_6[0][0]']
 l)

 conv2d_229 (Conv2D)            (None, 6, 6, 25)     38400       ['inception_resnet_v2[0][0]']

 batch_normalization_230 (Batch  (None, 6, 6, 25)    100         ['conv2d_229[0][0]']
 Normalization)

 re_lu_27 (ReLU)                (None, 6, 6, 25)     0           ['batch_normalization_230[0][0]']

 conv2d_227 (Conv2D)            (None, 6, 6, 25)     38400       ['inception_resnet_v2[0][0]']

 conv2d_230 (Conv2D)            (None, 6, 6, 25)     1875        ['re_lu_27[0][0]']

 batch_normalization_228 (Batch  (None, 6, 6, 25)    100         ['conv2d_227[0][0]']
 Normalization)

 batch_normalization_231 (Batch  (None, 6, 6, 25)    100         ['conv2d_230[0][0]']
 Normalization)

 re_lu_25 (ReLU)                (None, 6, 6, 25)     0           ['batch_normalization_228[0][0]']

 re_lu_28 (ReLU)                (None, 6, 6, 25)     0           ['batch_normalization_231[0][0]']

 max_pooling2d_10 (MaxPooling2D  (None, 6, 6, 1536)  0           ['inception_resnet_v2[0][0]']
 )

 conv2d_226 (Conv2D)            (None, 6, 6, 25)     38400       ['inception_resnet_v2[0][0]']

 conv2d_228 (Conv2D)            (None, 6, 6, 25)     5625        ['re_lu_25[0][0]']

 conv2d_231 (Conv2D)            (None, 6, 6, 25)     1875        ['re_lu_28[0][0]']

 conv2d_232 (Conv2D)            (None, 6, 6, 25)     38400       ['max_pooling2d_10[0][0]']

 batch_normalization_227 (Batch  (None, 6, 6, 25)    100         ['conv2d_226[0][0]']
 Normalization)

 batch_normalization_229 (Batch  (None, 6, 6, 25)    100         ['conv2d_228[0][0]']
 Normalization)

 batch_normalization_232 (Batch  (None, 6, 6, 25)    100         ['conv2d_231[0][0]']
 Normalization)

 batch_normalization_233 (Batch  (None, 6, 6, 25)    100         ['conv2d_232[0][0]']
 Normalization)

 re_lu_24 (ReLU)                (None, 6, 6, 25)     0           ['batch_normalization_227[0][0]']

 re_lu_26 (ReLU)                (None, 6, 6, 25)     0           ['batch_normalization_229[0][0]']

 re_lu_29 (ReLU)                (None, 6, 6, 25)     0           ['batch_normalization_232[0][0]']

 re_lu_30 (ReLU)                (None, 6, 6, 25)     0           ['batch_normalization_233[0][0]']

 concatenate_2 (Concatenate)    (None, 6, 6, 100)    0           ['re_lu_24[0][0]',
                                                                  're_lu_26[0][0]',
                                                                  're_lu_29[0][0]',
                                                                  're_lu_30[0][0]']

 global_average_pooling2d_2 (Gl  (None, 100)         0           ['concatenate_2[0][0]']
 obalAveragePooling2D)

 dense_4 (Dense)                (None, 38)           3838        ['global_average_pooling2d_2[0][0
                                                                 ]']

 dropout_2 (Dropout)            (None, 38)           0           ['dense_4[0][0]']

 dense_5 (Dense)                (None, 1)            39          ['dropout_2[0][0]']

==================================================================================================
Total params: 54,504,288
Trainable params: 167,202
Non-trainable params: 54,337,086
__________________________________________________________________________________________________
Number of batches in validation dataset: 8
Validation batch shape: (16, 256, 256, 3), Label shape: (16,)
…
