…
WARNING:tensorflow:Using a while_loop for converting AdjustContrastv2 cause Input "contrast_factor" of op 'AdjustContrastv2' expected to be loop invariant.
W1127 18:38:57.690865 11816 pfor.py:1082] Using a while_loop for converting AdjustContrastv2 cause Input "contrast_factor" of op 'AdjustContrastv2' expected to be loop invariant.
Model: "vgg_like"
_________________________________________________________________
 Layer (type)                Output Shape              Param #
=================================================================
 input_2 (InputLayer)        [(None, 256, 256, 3)]     0

 conv2d (Conv2D)             (None, 256, 256, 6)       168

 max_pooling2d (MaxPooling2D  (None, 128, 128, 6)      0
 )

 conv2d_1 (Conv2D)           (None, 128, 128, 6)       330

 max_pooling2d_1 (MaxPooling  (None, 64, 64, 6)        0
 2D)

 global_average_pooling2d (G  (None, 6)                0
 lobalAveragePooling2D)

 dense (Dense)               (None, 128)               896

 leaky_re_lu (LeakyReLU)     (None, 128)               0

 dropout (Dropout)           (None, 128)               0

 dense_1 (Dense)             (None, 1)                 129

=================================================================
Total params: 1,523
Trainable params: 1,523
Non-trainable params: 0
_________________________________________________________________
Loading the model from: F:\dl lab\dl-lab-24w-team04-feature\experiments\checkpoints\final_model.h5
Traceback (most recent call last):
  File "F:\dl lab\dl-lab-24w-team04-feature\Jiang241023\main.py", line 79, in <module>
…
